trained_models/1a/Open.pt (torch_old, 70927 bytes, 5 tensors)

rnn.weight_ih_l0 f4 [256, 2]
0.12390423 0.16182534 -0.07735514 -0.06415635 -0.090876505 0.06366983 -0.002574757 -0.019069849
0.067487955 -0.06554366 0.08828718 0.108449824 0.061393097 0.007702469 0.18362011 0.049527213
0.09448448 -0.061796658 -0.0043327543 0.1230213 0.12632658 0.12884532 -0.011058212 0.023903906
0.15203129 0.042509977 -0.012972505 0.052651204 0.0771713 0.061285984 -0.0484862 0.04926817
0.084267676 0.050400387 0.020353658 -0.051314164 -0.037751585 -0.016297935 0.14342272 0.0049994956
0.08246725 0.060981143 0.071713254 -0.08128561 0.05279746 0.09950044 0.17237498 0.11269627
0.11914385 0.098873496 0.03773945 -0.041191466 0.10559614 0.13290231 0.09781141 0.09421591
0.12517595 0.017657232 0.19280855 0.10608484 -0.055598356 -0.083325274 -0.0035845318 -0.066223666
0.18160684 -0.09742782 -0.09027392 0.08808225 0.032987878 -0.048901837 0.16112076 0.020219587
0.04612114 0.0216402 0.021628734 -0.04388859 0.10790025 -0.1315617 0.1148586 -0.013459928
0.18525606 0.112756826 0.14159153 -0.035301436 0.077235945 0.13746895 -0.119093135 0.00013458295
0.07761168 0.0079074865 0.12722926 0.099584885 0.031641606 -0.095750466 0.12167427 0.16329208
0.100545354 -0.015558552 0.010549597 0.09659952 0.19328861 0.1721014 -0.1133294 0.016828462
-0.08917776 0.032855287 0.116189726 0.20371132 0.10989772 -0.07021572 -0.0011544154 0.11724291
-0.02510073 0.114095435 0.005436343 0.049178608 0.05579477 -0.054996498 0.05155922 0.0760063
-0.034380347 0.07621499 0.046116177 0.13945654 0.13171968 -0.08426983 0.06296297 0.0658051
0.17972949 0.02366744 -0.02902178 -0.07075517 0.009912404 -0.041199416 0.13210893 0.02778525
0.06953992 -0.030865207 0.024569327 -0.104114 9.518388e-05 0.01690299 0.06807071 0.16383065
0.12327887 0.009318855 0.12609814 0.10639545 -0.01703565 0.042650238 0.11303605 -0.03561807
0.03667509 0.12302323 0.09963938 0.01979742 -0.016593007 -0.08747113 -0.022060705 0.03798942
0.12120761 0.10046798 0.13022862 0.13600834 0.109528504 0.05803754 0.12824252 -0.011904553
-0.06500404 0.09875491 -0.016330138 0.13957798 -0.0036896195 0.08335632 0.034321956 0.08411669
0.01747606 -0.07075356 -0.024922369 0.06731576 0.15092708 0.022905761 0.10849498 0.039422613
0.0923661 -0.07778544 0.10269096 0.124367036 -0.0075684083 0.119615234 0.052706633 0.10986003
0.1425778 0.1180282 0.11573652 0.072715946 -0.032171316 0.09800287 0.028803725 -0.029374057
0.08925441 0.07826793 0.0646859 0.013005601 0.037205357 -0.10382782 0.046418022 -0.017050939
0.12336773 0.10483999 0.16233282 -0.055544406 0.0063320366 0.0025168415 -0.09048935 0.093171455
0.055385128 0.13880652 0.018892676 -0.10855239 -0.07773406 -0.053369444 -0.033401683 0.16047095
0.07984185 -0.08348065 -0.054025583 -0.022029009 0.2074488 0.1419539 -0.11765658 -0.041063752
-0.01237232 -0.035904832 0.08064451 0.07414149 0.18827729 0.0942693 -0.028669942 0.060258772
-0.061916273 0.07922979 -0.020671798 0.13765176 0.12121658 0.09845444 -0.04578145 -0.0303116
0.15598735 -0.09145439 -0.106954515 0.052835416 0.08859566 -0.03390972 0.06364089 0.0040756185
00000000: 80c1 fd3d 8bb5 253e 5f6c 9ebd 6864 83bd
00000010: 761d babd 5465 823d 41bd 28bb 5f38 9cbc
00000020: 2037 8a3d c13b 86bd e9cf b43d f11a de3d
00000030: 5477 7b3d fe64 fc3b e906 3c3e 0cdd 4a3d
00000040: 1481 c13d 7e1e 7dbd c7f9 8dbb 97f2 fb3d
00000050: c15b 013e 07f0 033e 812d 35bc 20d2 c33c
00000060: 17ae 1b3e f11e 2e3d a18a 54bc caa8 573d
00000070: fd0b 9e3d 0307 7b3d 7799 46bd 6ccd 493d
00000080: 8894 ac3d a370 4e3d b7bc a63c cd2e 52bd
00000090: 68a1 1abd 3f83 85bc 68dd 123e cfd2 a33b
000000a0: 97e4 a83d 5dc7 793d 66de 923d 1279 a6bd
000000b0: 2642 583d e3c6 cb3d 1183 303e 4dcd e63d
000000c0: b101 f43d 307e ca3d ae94 1a3d 62b8 28bd
000000d0: ca42 d83d 8b17 083e 5951 c83d 45f4 c03d
000000e0: 202e 003e e6a5 903c 9b6f 453e 0243 d93d
000000f0: 1abb 63bd 71a6 aabd 77ea 6abb 46a0 87bd
00000100: 25f7 393e 3d88 c7bd 88e1 b8bd 7764 b43d
00000110: 4c1e 073d 4b4d 48bd d7fc 243e 8ca3 a53c
00000120: 85e9 3c3d ca46 b13c be2e b13c 86c4 33bd
00000130: cefa dc3d 1cb8 06be fc3a eb3d 0887 5cbc
00000140: c4b3 3d3e 0ded e63d 5ffd 103e 3d98 10bd
00000150: e12d 9e3d a9c4 0c3e 1ae7 f3bd d61e 0d39
00000160: dff2 9e3d 678e 013c 6348 023e 29f3 cb3d
00000170: a19a 013d d218 c4bd 5c30 f93d 0a36 273e
00000180: b9ea cd3d 4ce9 7ebc 38d8 2c3c f8d5 c53d
00000190: 73ed 453e 593b 303e 3f19 e8bd d8db 893c
000001a0: d4a2 b6bd 4493 063d e1f4 ed3d b399 503e
000001b0: 0e12 e13d 42cd 8fbd c14f 97ba 0d1d f03d
000001c0: 0ca0 cdbc deaa e93d 5a23 b23b 826f 493d
000001d0: 0f89 643d 0244 61bd c32f 533d 31a9 9b3d
000001e0: 68d2 0cbd 9b16 9c3d 51e4 3c3d b2cd 0e3e
000001f0: 86e1 063e a995 acbd bbf2 803d d3c4 863d
00000200: 020b 383e 38e2 c13c 15bf edbc 16e8 90bd
00000210: a367 223c b8c0 28bd 9047 073e e59d e33c
00000220: f26a 8e3d 08d9 fcbc 9d45 c93c b939 d5bd
00000230: 759d c738 2478 8a3c a868 8b3d 39c3 273e
00000240: a279 fc3d 1cae 183c df1f 013e dce5 d93d
00000250: 598e 8bbc 04b2 2e3d 727f e73d 41e4 11bd
00000260: 9f38 163d 9af3 fb3d bb0f cc3d 332e a23c
00000270: 0fee 87bc 1024 b3bd a7b8 b4bc cb9a 1b3d
00000280: b23b f83d 28c2 cd3d a75a 053e c545 0b3e
00000290: 7b50 e03d c6b8 6d3d 0252 033e 500b 43bc
000002a0: d720 85bd 0440 ca3d c8c6 85bc 88ed 0e3e
000002b0: 8bcd 71bb b8b6 aa3d 2e95 0c3d 5f45 ac3d
000002c0: f429 8f3c 3ee7 90bd ff29 ccbc d8dc 893d
000002d0: a18c 1a3e dda4 bb3c 9e32 de3d 9b79 213d
000002e0: 702a bd3d f94d 9fbd a34f d23d 25b4 fe3d
000002f0: 6900 f8bb d5f8 f43d e9e2 573d 4cfe e03d
00000300: eaff 113e c5b8 f13d 4507 ed3d 19ec 943d
00000310: 12c6 03bd bbb5 c83d caf5 eb3c dda1 f0bc
00000320: 04cb b63d f04a a03d 0b7a 843d 7215 553c
00000330: a564 183d aea3 d4bd d320 3e3d 69ae 8bbc
00000340: 38a8 fc3d 59b6 d63d 933a 263e 8882 63bd
00000350: f97c cf3b 98f1 243b 7b52 b9bd add0 be3d
00000360: 84db 623d 4c23 0e3e d0c4 9a3c b750 debd
00000370: 0933 9fbd eb99 5abd 34d0 08bd 7f52 243e
00000380: 2084 a33d e7f7 aabd ee49 5dbd 2e76 b4bc
00000390: 756d 543e 5d5c 113e eff5 f0bd 7732 28bd
000003a0: 45b5 4abc f210 13bd f328 a53d 7ed7 973d
000003b0: c3cb 403e 4310 c13d 3add eabc e7d1 763d
000003c0: eb9b 7dbd 3a43 a23d e757 a9bc 95f4 0c3e
000003d0: 6640 f83d 7ba2 c93d 5485 3bbd 0850 f8bc
000003e0: 26bb 1f3e 704c bbbd f80a dbbd f369 583d
000003f0: a471 b53d ebe4 0abd 2856 823d c48c 853b

rnn.weight_hh_l0 f4 [256, 64]
-0.13754663 -0.009534939 0.041340742 0.02911521 -0.015677247 0.02722806 -0.06722014 0.012233557
-0.0720396 0.11291433 0.08971078 0.005380586 0.0004948423 0.06283595 0.09731689 -0.025189085
-0.10063442 -0.10095293 0.039601628 0.00798472 -0.08715184 -0.13657409 0.087249994 -0.044483665
0.09131301 -0.048513748 0.08334134 0.0006049909 -0.07846662 -0.000330819 0.058542095 0.07975848
0.06959058 -0.0910621 -0.014480679 -0.07608139 -0.13966458 0.04862149 0.020035025 0.10223671
-0.03971177 -0.082888424 0.075835876 0.0838881 -0.09888107 0.03615605 0.09827006 0.094485566
-0.04781351 0.022421109 -0.0011796759 -0.11874974 -0.05976624 -0.0038373135 -0.037546515 -0.022197245
0.12988782 0.07843644 0.0417056 0.14786334 0.024516888 -0.10934514 -0.13267954 0.13590866
0.13300167 -0.056988996 0.094907485 0.115817145 -0.009376039 -0.106740534 -0.09035137 0.090065844
0.088004254 0.023925804 -0.07764107 0.13448296 0.069068104 0.07484773 -0.0036792941 -0.086405255
-0.003693187 -0.061749525 0.08271657 0.039975014 0.044071842 0.09461812 -0.06885535 0.12528381
-0.04378951 0.09783814 0.1074852 0.13632144 -0.10708801 -0.015077054 0.0431665 -0.05001595
-0.03528174 0.10586886 0.09472004 0.046433117 -0.03521055 0.05841749 0.088049434 -0.10039162
-0.024518779 0.026076779 -0.031641666 0.033175208 0.13919877 -0.066266306 0.05596154 0.052547116
0.038718395 -0.047925442 0.13664931 -0.027464768 0.039219763 0.051526275 -0.07733299 -0.009044213
0.00062725553 -0.08801222 0.02554392 -0.0146513535 -0.07491106 0.089545876 -0.031268254 -0.05056208
-0.07618984 -0.07630028 0.0352722 0.064775355 -0.096772715 -0.07151989 0.08387657 0.1067963
-0.07181792 0.08535648 -0.0062282765 0.052721027 -0.015383439 0.043359913 0.11710969 -0.0033178262
0.09704433 -0.05303646 0.122549646 0.094774246 0.11419142 -0.03931086 -0.07132205 -0.027207775
0.029331207 -0.034171745 -0.13900034 -0.029752977 0.06562438 0.108345054 -0.01739333 0.05468889
-0.08154993 -0.037771117 -0.102165155 0.031811535 0.07435953 -0.03992284 -0.08317987 -0.06621105
0.026129464 0.05282717 -0.04114491 -0.11761778 -0.060106676 0.06354554 0.0485236 -0.0727723
-0.009974055 -0.0595648 0.059850685 -0.05096072 -0.08040409 -0.02018695 -0.070059925 0.08811245
0.03946266 -0.08116612 -0.02368151 0.018124137 -0.03911351 0.06888695 -0.062164437 -0.019980583
-0.0059440723 -0.04688453 0.13284372 0.120718196 0.027269147 0.13111266 0.070444524 0.15400186
0.18446393 0.15018284 0.14507738 -0.13642722 0.050727572 -0.031880785 0.09627132 0.16456367
-0.10523639 0.047575604 -0.11589926 0.042267073 -0.16896679 0.013810975 -0.0962634 -0.1763826
0.021236844 -0.15516455 -0.011961038 -0.11402167 0.0375338 0.023835663 -0.006160514 -0.04461879
-0.123855084 -0.068757735 -0.0034796188 -0.037866943 0.009996153 -0.10675468 -0.00630277 0.09524402
-0.10373674 -0.026569687 -0.096164554 0.12896293 -0.12018247 0.02645193 -0.08246967 0.11756288
0.11323646 -0.12925617 -0.03778742 -0.068577476 -0.1760993 0.040555466 -0.050194353 0.102438115
0.19683877 0.050049815 -0.18052272 0.1471046 -0.015537937 -0.16992512 -0.034031793 0.11854117
00000000: 06d9 0cbe 6f38 1cbc e954 293d 0583 ee3c
00000010: 926d 80bc 610d df3c b6aa 89bd 426f 483c
00000020: 7f89 93bd a13f e73d 49ba b73d a04f b03b
00000030: 4eb8 013a 22b0 803d 144e c73d 5759 cebc
00000040: 6b19 cebd 69c0 cebd 5135 223d 58d2 023c
00000050: aa7c b2bd 14da 0bbe 20b0 b23d 8134 36bd
00000060: 5102 bb3d 5ab6 46bd ddae aa3d 4198 1e3a
00000070: 1bb3 a0bd c671 adb9 d6c9 6f3d 6a58 a33d
00000080: 8285 8e3d c47e babd 5f40 6dbc 8fd0 9bbd
00000090: 3b04 0fbe 5427 473d 7e20 a43c 7b61 d13d
000000a0: cfa8 22bd 68c1 a9bd d74f 9b3d 86cd ab3d
000000b0: 2982 cabd 5e18 143d d041 c93d a681 c13d
000000c0: 19d8 43bd 79ac b73c 5b9f 9aba 1033 f3bd
000000d0: 72cd 74bd 707b 7bbb 60ca 19bd ffd6 b5bc
000000e0: 5001 053e 49a3 a03d 7ed3 2a3d 7d69 173e
000000f0: a4d7 c83c 58f0 dfbd 25dd 07be a42b 0b3e
00000100: 9731 083e 4b6d 69bd db5e c23d 8a31 ed3d
00000110: f59d 19bc c89a dabd 240a b9bd 7174 b83d
00000120: 933b b43d 0c00 c43c 4802 9fbd e7b5 093e
00000130: 9473 8d3d c449 993d 5020 71bb 3df5 b0bd
00000140: 6509 72bb 12ed 7cbd 4e67 a93d d7bc 233d
00000150: ad84 343d 25c7 c13d 0904 8dbd 664a 003e
00000160: a15c 33bd 5d5f c83d 3321 dc3d d997 0b3e
00000170: f550 dbbd bf05 77bc 5bcf 303d 86dd 4cbd
00000180: 9683 10bd c6d1 d83d 95fc c13d a730 3e3d
00000190: f038 10bd 2e47 6f3d 4353 b43d 1f9a cdbd
000001a0: 9bdb c8bc f89e d53c b19a 01bd bae2 073d
000001b0: 1f8a 0e3e a1b6 87bd ee37 653d a53b 573d
000001c0: 2e97 1e3d 784d 44bd cced 0b3e cbfd e0bc
000001d0: e7a4 203d 370d 533d c260 9ebd 2e2e 14bc
000001e0: 686e 243a c03f b4bd 7c41 d13c 3b0c 70bc
000001f0: f86a 99bd d463 b73d 2413 00bd 2f1a 4fbd
00000200: 6b09 9cbd 5243 9cbd 9579 103d f1a8 843d
00000210: c630 c6bd 0579 92bd 7bc7 ab3d 05b8 da3d
00000220: 4615 93bd 61cf ae3d 9216 ccbb 01f2 573d
00000230: d20a 7cbc 2a9a 313d 35d7 ef3d e36f 59bb
00000240: 2dbf c63d c23c 59bd 4ffb fa3d 0019 c23d
00000250: 31dd e93d 6d04 21bd 4c11 92bd d7e2 debc
00000260: 0048 f03c acf7 0bbd 1b56 0ebe 84bc f3bc
00000270: 1366 863d 03e4 dd3d 757c 8ebc 7501 603d
00000280: a603 a7bd e3b5 1abd f73b d1bd d04c 023d
00000290: cf49 983d 2286 23bd 355a aabd a999 87bd
000002a0: 750d d63c 4d61 583d 9187 28bd 97e1 f0bd
000002b0: 6b32 76bd 2a24 823d afc0 463d a509 95bd
000002c0: 386a 23bc 38fa 73bd fe25 753d 30bc 50bd
000002d0: e6aa a4bd 1a5f a5bc 947b 8fbd 4d74 b43d
000002e0: 99a3 213d 6c3a a6bd baff c1bc 1279 943c
000002f0: 7d35 20bd 9a14 8d3d 23a0 7ebd 52ae a3bc
00000300: 7ec6 c2bb fe09 40bd 2f08 083e 1a3b f73d
00000310: 8c63 df3c 6642 063e 3845 903d aab2 1d3e
00000320: 1de4 3c3e 88c9 193e 2a8f 143e 94b3 0bbe
00000330: b7c7 4f3d 6d95 02bd e629 c53d 6183 283e
00000340: 2d86 d7bd a3de 423d 975c edbd 3d20 2d3d
00000350: a105 2dbe 6d47 623c bf25 c5bd a49d 34be
00000360: e4f8 ad3c 75e3 1ebe 3bf8 43bc 3184 e9bd
00000370: 0bbd 193d 0243 c33c 23de c9bb 31c2 36bd
00000380: bca7 fdbd dbd0 8cbd 510a 64bb 5e1a 1bbd
00000390: e8c6 233c 33a2 dabd 7887 cebb 4c0f c33d
000003a0: ee73 d4bd aca8 d9bc ecf1 c4bd dc0e 043e
000003b0: 3a22 f6bd b8b1 d83c dce5 a8bd cfc4 f03d
000003c0: 84e8 e73d bb5b 04be fbc6 1abd 5972 8cbd
000003d0: 6053 34be 7d1d 263d 9898 4dbd 13cb d13d
000003e0: 1a90 493e 0901 4d3d f3da 38be 97a2 163e
000003f0: d592 7ebc da00 2ebe ec64 0bbd b7c5 f23d

rnn.bias_ih_l0 f4 [256]
0.12252292 0.10490994 -0.030069424 0.057191413 -0.013691123 0.017738475 -0.023195475 0.15118048
-0.029617174 0.024524894 0.09492638 -0.030421885 0.028519565 -0.026865546 0.078922436 -0.1009394
-0.027362123 -0.00646547 -0.080757365 -0.013169791 -0.010344449 -0.019287197 0.13086584 -0.11047365
-0.008605459 0.08808954 -0.092790045 0.038950253 -0.007043532 0.10032514 0.077741094 0.1633666
0.12341748 0.042078473 0.07238492 -0.08451642 0.038936097 -0.0462083 -0.0932345 -0.06660721
0.0118359495 0.11878838 -0.056803685 0.08197701 0.13993739 0.11220195 0.06792647 -0.024998894
0.042681314 0.12354298 -0.06443795 0.05937405 0.08289431 -0.012355217 0.049094792 -0.11082992
0.086875305 0.046579167 0.12830305 0.027769612 -0.044895142 0.05292789 -0.059123073 -0.0058141965
0.049518388 -0.1369967 -0.0883402 0.016211636 -0.109841585 0.0777075 -0.09323157 0.01574855
-0.030422213 0.1291036 0.09319641 -0.069954686 0.0100257415 0.04186656 0.08044063 0.07115891
-0.091742955 -0.09972967 0.039095502 0.04628505 -0.05675548 0.040959332 0.16245835 -0.0125324465
-0.08017809 -0.017689452 0.04695954 -0.10495501 0.11904899 0.052186385 0.06416173 0.027588228
-0.09973464 -0.002869159 0.033966333 -0.06112826 0.11813594 -0.0050949934 0.0023011651 -0.012387698
-0.033830546 0.102405615 -0.06374024 -0.107793026 0.030446298 0.045338485 0.041229744 0.16247246
0.01170923 -0.043159172 0.12825474 0.11273294 0.029990373 0.013969222 -0.077788286 -0.09620895
-0.10698906 0.14717491 0.044567138 -0.037075862 -0.016447475 -0.05482865 -0.061241813 0.14331152
-0.06880791 0.07677664 -0.050543103 -0.078449845 -0.018258581 -0.008235989 -0.08074814 -0.009189334
0.095361695 0.019949628 -0.043972675 -0.09247217 -0.020413518 0.095647104 -0.019812414 -0.01295621
0.0016327798 0.12831303 0.068028696 -0.09164574 0.10862813 -0.10338671 -0.060116895 -0.021988463
-0.061069943 -0.05642488 0.034011338 -0.11582592 -0.028459687 -0.08805331 -0.016699972 0.05349249
-0.0007127365 0.021873426 -0.073511526 -0.02649026 0.06310279 -0.12587506 -0.09087856 0.051684573
-0.025209108 -0.108709306 -0.019003825 -0.042214293 -0.089959644 -0.051729895 0.0062982636 -0.008254679
0.07678406 0.0060584364 0.01267041 0.044731833 -0.045005966 -0.0662442 0.10673695 0.099971324
-0.10013083 -0.12691374 0.029164102 -0.05451642 -0.079425484 -0.080212146 0.029186906 -0.10308401
-0.0014000084 0.101404026 0.074411206 0.09395562 -0.056213453 0.06760346 0.11583816 0.028172962
-0.08281385 0.013074039 0.14799279 -0.021417866 0.055071253 0.0999968 -0.13163695 0.014360517
-0.06487672 0.0013155976 -0.095726565 -0.077782325 -0.06133141 0.028834743 0.019319443 -0.102107175
-3.8909515e-05 0.12601672 -0.08535564 -0.07768904 0.014347487 -0.033193342 -0.049485236 0.088394955
0.05750836 0.07656932 0.09044283 0.035046294 -0.08826984 -0.08520702 0.10326899 -0.09084832
-0.058124993 -0.020730041 0.08309205 0.08258458 0.13264441 -0.007271904 -0.09093138 -0.06464907
-0.054872517 -0.024603942 0.15904443 -0.0050196424 0.0850699 0.039093763 -0.073365554 0.056694034
0.01785561 0.080721416 0.10105798 -0.010507065 -0.08326068 0.11051325 -0.016123937 0.009771664
00000000: 4ced fa3d 06db d63d 2754 f6bc 8b41 6a3d
00000010: bb50 60bc 4750 913c 7004 bebc 0ecf 1a3e
00000020: b79f f2bc 6ee8 c83c c368 c23d 5137 f9bc
00000030: dda1 e93c 2215 dcbc 16a2 a13d 51b9 cebd
00000040: 8826 e0bc 4bdc d3bb 1e64 a5bd 1bc6 57bc
00000050: c47b 29bc 2f00 9ebc b201 063e 0240 e2bd
00000060: e9fd 0cbc 4a68 b43d b508 bebd 4d8a 1f3d
00000070: 6ecd e6bb 4477 cd3d b936 9f3d 9349 273e
00000080: 4ec2 fc3d 7a5a 2c3d 8c3e 943d f216 adbd
00000090: 757b 1f3d ea44 3dbd bbf1 bebd 5c69 88bd
000000a0: 92eb 413c 5247 f33d fbaa 68bd 90e3 a73d
000000b0: bf4b 0f3e 23ca e53d 081d 8b3d 7bca ccbc
000000c0: 9ad2 2e3d 1a04 fd3d 0bf8 83bd 3432 733d
000000d0: 7ec4 a93d 896d 4abc 9f17 493d ccfa e2bd
000000e0: aeeb b13d ccc9 3e3d e061 033e 197d e33c
000000f0: f8e3 37bd eaca 583d 092b 72bd 0485 bebb
00000100: cbd3 4a3d dd48 0cbe b5eb b4bd 44ce 843c
00000110: a0f4 e0bd 1c25 9f3d 32f0 bebd 1a03 813c
00000120: 0138 f9bc bc33 043e c2dd be3d 6744 8fbd
00000130: 0243 243c 457c 2b3d 0fbe a43d c3bb 913d
00000140: bbe3 bbbd 123f ccbd 9b22 203d 6595 3d3d
00000150: 6f78 68bd f9c4 273d 7b5b 263e e454 4dbc
00000160: 6934 a4bd 78e9 90bc a658 403d a7f2 d6bd
00000170: f5cf f33d 64c1 553d 3a67 833d b500 e23c
00000180: ad41 ccbd 8008 3cbb 4820 0b3d a061 7abd
00000190: 41f1 f13d e7f3 a6bb 25cf 163b c5f5 4abc
000001a0: e691 0abd 09ba d13d 3e8a 82bd 97c2 dcbd
000001b0: 846a f93c d9b4 393d 85e0 283d 2e5f 263e
000001c0: 12d8 3f3c acc7 30bd 3655 033e 87e0 e63d
000001d0: 5fae f53c 2adf 643c 774f 9fbd 3309 c5bd
000001e0: 151d dbbd 05b5 163e 088c 363d dcdc 17bd
000001f0: dbbc 86bc 0294 60bd b2d8 7abd 41c0 123e
00000200: 29eb 8cbd 123d 9d3d 4906 4fbd 50aa a0bd
00000210: 0593 95bc 3ef0 06bc 485f a5bd dc8e 16bc
00000220: fe4c c33d 676d a33c b11c 34bd 0d62 bdbd
00000230: 403a a7bc a1e2 c33d a54d a2bc 4946 54bc
00000240: 0003 d63a 7e64 033e a152 8b3d c3b0 bbbd
00000250: 6d78 de3d 69bc d3bd 223d 76bd 2621 b4bc
00000260: 7a24 7abd c61d 67bd 794f 0b3d 2436 edbd
00000270: 4a24 e9bc 4b55 b4bd 61ce 88bc f11a 5b3d
00000280: f0d6 3aba e62f b33c 368d 96bd 1a02 d9bc
00000290: 093c 813d 64e5 00be 8a1e babd 34b3 533d
000002a0: 5583 cebc fca2 debd e9ad 9bbc e5e8 2cbd
000002b0: c33c b8bd bae2 53bd aa61 ce3b a23e 07bc
000002c0: f640 9d3d d985 c63b 8d97 4f3c ba38 373d
000002d0: 2d58 38bd 0aab 87bd e798 da3d c4bd cc3d
000002e0: 6511 cdbd adf5 01be 8ee9 ee3c 9c4c 5fbd
000002f0: d4a9 a2bd 4446 a4bd 6119 ef3c b61d d3bd
00000300: 7d80 b7ba eaac cf3d e764 983d ce6b c03d
00000310: 1440 66bd af73 8a3d 8f3c ed3d fcca e63c
00000320: 4f9a a9bd 7e34 563c 6c8b 173e 8574 afbc
00000330: 6592 613d 1fcb cc3d d6cb 06be 6048 6b3c
00000340: 16de 84bd 2170 ac3a 4a0c c4bd 574c 9fbd
00000350: a536 7bbd d736 ec3c cf43 9e3c 911d d1bd
00000360: c632 23b8 870a 013e f0ce aebd 6e1b 9fbd
00000370: b911 6b3c bef5 07bd 08b1 4abd 6a08 b53d
00000380: e38d 6b3d 60d0 9c3d 173a b93d b48c 0f3d
00000390: d1c6 b4bd 0581 aebd b17e d33d af0e babd
000003a0: 7914 6ebd 0cd2 a9bc 2a2c aa3d 1b22 a93d
000003b0: f0d3 073e 2749 eebb 3b3a babd bb66 84bd
000003c0: 01c2 60bd 358e c9bc 8bdc 223e d07b a4bb
000003d0: 2139 ae3d c820 203d ae40 96bd 0138 683d
000003e0: ee45 923c 4551 a53d 7cf7 ce3d d325 2cbc
000003f0: 9384 aabd c554 e23d 5916 84bc 5419 203c

rnn.bias_hh_l0 f4 [256]
-0.09097731 -0.04773065 0.08817733 0.051989872 -0.03738468 0.047346022 0.057194397 -0.084157184
-0.024954345 0.061433196 -0.09430042 -0.020131981 -0.101903394 -0.030211283 -0.14044484 -0.12464193
0.1369912 -0.12128484 0.032222807 -0.095397614 -0.08960764 0.08353042 0.11090886 -0.0007252637
0.013279022 0.034343164 0.07701167 -0.040807758 -0.12093407 -0.045303382 -0.05037806 0.0864736
0.1351629 -0.07277991 0.0942135 -0.08476317 0.10619914 -0.08430781 0.053000964 0.12104463
0.05716571 -0.040419992 0.13955142 0.09068215 0.1124582 -0.047984675 -0.10711252 0.039018877
-0.10783893 0.062381912 0.15184647 0.079520926 -0.016911862 -0.020668646 -0.085176714 -0.111826405
0.050845608 -0.036765303 0.12837113 -0.058307186 -0.028823221 -0.029733311 0.063008875 0.036612652
0.10594847 -0.10952663 -0.012823926 0.016817627 0.116595924 0.10636822 -0.022568995 -0.0021854904
-0.0018178981 0.0044245217 0.053821255 -0.023813715 -0.11168231 -0.069277406 -0.10884126 -0.050275598
0.10752931 0.028063426 0.0156311 0.0050101867 0.12291199 0.08819176 -0.0406193 0.12750144
-0.078050114 0.086755484 -0.07807789 0.071254596 -0.09365547 0.14927933 -0.007821952 0.052939303
-0.092111655 0.021276826 0.1290012 0.071143694 -0.03375072 0.12650304 0.0541378 -0.09240096
0.0535181 0.13738252 -0.081985846 0.038017437 -0.084695354 -0.09709047 0.041879736 0.13086373
-0.0656996 0.13525572 -0.00798201 -0.11708678 0.06305758 0.052906968 0.025769083 -0.021837518
-0.086742535 -0.055086717 0.0354299 0.039780386 -0.015826982 0.11597077 0.12016422 0.094817944
0.116204225 0.030713143 0.016885743 0.018360615 0.12634887 -0.07447746 -0.045430664 0.085560985
0.10776891 -0.048968803 0.07125055 -0.103098474 0.042105824 0.050684545 0.02183792 0.08511504
-0.09864223 -0.030844837 -0.04831637 0.009079164 -0.12330991 -0.1184245 -0.08571457 0.008805587
-0.09972793 -0.12307319 -0.00039194114 -0.10027116 -0.082249224 0.107581146 -0.11649071 -0.06964966
-0.10922464 0.044517733 -0.075654976 4.6718455e-05 -0.041284747 0.00420477 0.084806316 -0.056921627
-0.004138603 0.085567474 0.024743011 0.11732652 0.0053588846 0.0111829145 -0.08479938 0.10591874
0.109034054 0.08475439 -0.00582887 -0.07681026 -0.04566467 -0.0019108067 0.07425264 0.12277614
0.065952115 0.10325553 0.05993126 0.039939743 -0.06812397 0.029862862 -0.061059523 -0.0033149684
-0.026632452 -0.1134079 -0.009502023 0.09954439 0.05388072 -0.10208107 -0.094840825 -0.046180546
0.053529628 0.03022652 -0.03708063 -0.042430583 -0.0038442283 -0.069570035 0.0641684 -0.053367417
-0.032434043 -0.022760503 -0.06841063 0.0062085926 0.002529872 -0.077438325 0.04159133 -0.008518435
-0.072893396 -0.08174113 0.13936047 -0.084296264 0.10747871 -0.08863702 0.043533847 0.10244603
0.07820291 -0.080372 -0.012406729 0.119584486 -0.04643405 0.118040435 0.009666924 -0.02445976
0.038889047 0.004911408 0.10753083 -0.11472873 0.108460605 0.09799736 -0.12027179 -0.07013448
0.027040578 -0.066566244 0.05854064 -0.083269306 0.062058587 -0.009349142 -0.059756774 -0.030472107
0.12396614 0.1531778 0.008728437 -0.07928168 0.11555257 0.14185108 0.014498594 -0.07816911
00000000: 5052 babd 3781 43bd 5196 b43d 55f3 543d
00000010: ae20 19bd e7ed 413d ac44 6a3d 9a5a acbd
00000020: 0e6d ccbc 60a1 7b3d 9420 c1bd d3eb a4bc
00000030: bab2 d0bd a77d f7bc c6d0 0fbe 4544 ffbd
00000040: 6c47 0c3e 3064 f8bd 10fc 033d d35f c3bd
00000050: 3684 b7bd ff11 ab3d 2f24 e33d 9f1f 3eba
00000060: 4190 593c 6bab 0c3d 4bb8 9d3d 0926 27bd
00000070: 48ac f7bd 0a90 39bd 3a59 4ebd 1219 b13d
00000080: 2568 0a3e a20d 95bd 02f3 c03d 5098 adbd
00000090: ef7e d93d 93a9 acbd 8a17 593d 3fe6 f73d
000000a0: 9726 6a3d 6f8f 25bd 91e6 0e3e 90b7 b93d
000000b0: 7c50 e63d 948b 44bd cf5d dbbd 42d2 1f3d
000000c0: a8da dcbd 2d84 7f3d a47d 1b3e dedb a23d
000000d0: bf8a 8abc 4b51 a9bc 2171 aebd 3e05 e5bd
000000e0: 7c43 503d 3797 16bd b973 033e 84d3 6ebd
000000f0: ad1e ecbc 4693 f3bc cc0a 813d 26f7 153d
00000100: 83fb d83d 7f4f e0bd 721b 52bc 1fc5 893c
00000110: d8c9 ee3d 95d7 d93d 9de2 b8bc 723a 0fbb
00000120: 8a46 eeba 94fb 903b ad73 5c3d fb14 c3bc
00000130: b2b9 e4bd 50e1 8dbd 2be8 debd c9ed 4dbd
00000140: 5438 dc3d 45e5 e53c cb0c 803c 7e2c a43b
00000150: 48b9 fb3d e29d b43d 6c60 26bd bd8f 023e
00000160: bdd8 9fbd dcac b13d 4de7 9fbd eeed 913d
00000170: 70ce bfbd aedc 183e a527 00bc e2d6 583d
00000180: 09a5 bcbd bd4c ae3c e418 043e c9b3 913d
00000190: 323e 0abd 038a 013e 99bf 5d3d b73c bdbd
000001a0: cc35 5b3d 01ae 0c3e 32e8 a7bd 2cb8 1b3d
000001b0: c274 adbd 5ed7 c6bd 168a 2b3d 2401 063e
000001c0: 838d 86bd 7a80 0a3e fac6 02bc 32cb efbd
000001d0: 5524 813d fab4 583d af19 d33c 98e4 b2bc
000001e0: 12a6 b1bd 9ca2 61bd f11e 113d c2f0 223d
000001f0: 96a7 81bc 1582 ed3d a918 f63d e92f c23d
00000200: 7bfc ed3d 219a fb3c f853 8a3c 0069 963c
00000210: 9961 013e a387 98bd 8115 3abd 993a af3d
00000220: f2b5 dc3d 8393 48bd cfeb 913d 4b25 d3bd
00000230: 2877 2c3d 999a 4f3d 70e5 b23c cb50 ae3d
00000240: f004 cabd 50ae fcbc 63e7 45bd c6c0 143c
00000250: e889 fcbd 8b88 f2bd 1f8b afbd 4f45 103c
00000260: 283e ccbd cc0d fcbd 737d cdb9 f75a cdbd
00000270: 4872 a8bd 8153 dc3d ae92 eebd 7ba4 8ebd
00000280: 2bb1 dfbd 3a58 363d fff0 9abd 8ff3 4338
00000290: 321a 29bd 2bc8 893b efae ad3d a726 69bd
000002a0: 1e9d 87bb 003e af3d dbb1 ca3c e348 f03d
000002b0: 9599 af3b 8b38 373c 4cab adbd edeb d83d
000002c0: 3f4d df3d b693 ad3d 1b00 bfbb b34e 9dbd
000002d0: e10a 3bbd 0974 faba c511 983d 0f72 fb3d
000002e0: e711 873d a377 d33d 7b7a 753d db97 233d
000002f0: 9484 8bbd f6a2 f43c 8d19 7abd f13f 59bb
00000300: 4d2c dabc 6742 e8bd 60ae 1bbc eedd cb3d
00000310: 08b2 5c3d e10f d1bd e83b c2bd d027 3dbd
00000320: e241 5b3d 9b9d f73c dce1 17bd b1cb 2dbd
00000330: 73ef 7bbb bc7a 8ebd b96a 833d cb97 5abd
00000340: 8fd9 04bd 3c74 babc df1a 8cbd 7371 cb3b
00000350: 36cc 253b fc97 9ebd ac5b 2a3d e890 0bbc
00000360: 2249 95bd e567 a7bd 83b4 0e3e 85a3 acbd
00000370: cc1d dc3d 5387 b5bd 8c50 323d 39cf d13d
00000380: d928 a03d 139a a4bd 9845 4bbc b6e8 f43d
00000390: a131 3ebd 2fbf f13d 0562 1e3c d65f c8bc
000003a0: 1f4a 1f3d e0ef a03b 2039 dc3d e5f6 eabd
000003b0: 9820 de3d d7b2 c83d 0e51 f6bd aba2 8fbd
000003c0: 3484 dd3c e253 88bd 4fc8 6f3d 1989 aabd
000003d0: 2531 7e3d 252d 19bc 85c3 74bd a4a0 f9bc
000003e0: f6e1 fd3d a4da 1c3e b801 0f3c 6f5e a2bd
000003f0: d3a6 ec3d 6941 113e 838b 6d3c 2017 a0bd

output.weight f4 [1, 64]
-0.104166046 -0.054132193 0.100319855 -0.026431173 0.016227536 0.12808408 0.06865294 0.1315059
0.092567444 0.14121147 0.15545967 -0.06939336 0.013994449 -0.080607876 0.073672764 0.009048617
-0.15290013 0.04842055 -0.01990324 0.112075225 0.029079549 -0.12521815 0.12566398 -0.022529397
-0.03128212 -0.116222404 -0.14134221 -0.09245372 0.050688073 0.16128322 0.08795168 0.12678081
-0.08785927 -0.10756865 -0.12135831 -0.06299871 -0.037959326 -0.052524183 0.06636737 -0.021673638
-0.06466472 -0.11767597 -0.0179951 0.068785906 -0.11575486 0.10783723 -0.04620261 -0.1310299
-0.008472618 -0.04160908 -0.07593169 0.10600462 0.06226041 0.14516516 -0.008794407 0.032652214
0.079038136 0.08626251 -0.04661081 0.09046436 -0.11892656 0.025995849 0.06854485 0.15102497
00000000: 0255 d5bd b8b9 5dbd 7f74 cd3d 3086 d8bc
00000010: 9cef 843c 7928 033e ea99 8c3d 7ca9 063e
00000020: 0094 bd3d bd99 103e d230 1f3e 1b1e 8ebd
00000030: f948 653c be15 a5bd bfe1 963d a740 143c
00000040: da91 1cbe a054 463d 1f0c a3bc b287 e53d
00000050: 3c38 ee3c 3039 00be 0fae 003e 928f b8bc
00000060: ae21 00bd 0306 eebd 03bc 10be 6058 bdbd
00000070: 4c9e 4f3d 6e27 253e 0320 b43d d4d2 013e
00000080: 90ef b3bd f44c dcbd b58a f8bd 7805 81bd
00000090: 3d7b 1bbd 9923 57bd 9eeb 873d ea8c b1bc
000000a0: f06e 84bd 1900 f1bd 766a 93bc a0df 8c3d
000000b0: e210 edbd c4d9 dc3d f33e 3dbd b42c 06be
000000c0: bcd0 0abc 486e 2abd 1382 9bbd f318 d93d
000000d0: c604 7f3d 2da6 143e 6b16 10bc 54be 053d
000000e0: bfde a13d 66aa b03d faea 3ebd 6145 b93d
000000f0: c58f f3bd 3ff5 d43c 3e61 8c3d 4aa6 1a3e
