trained_models/1a/Open.pt (torch_old, 53513 bytes, 5 tensors)

rnn.weight_ih_l0 f4 [192, 2]
000000 f7 67 87 bd 10 b8 25 3e 67 e0 98 bd 09 01 ae 3d
       -0.066116266 0.16183496 -0.07464676 0.08496291
000010 a3 f6 28 3d 77 8e 58 3b db 89 f0 3d a4 8f cd bd
       0.041250836 0.00330439 0.11745044 -0.10037163
000020 69 de 0f 3d 4a cc 94 bc f5 27 13 3e 2c f9 8d 3d
       0.035124216 -0.018163819 0.14370711 0.069322914
000030 e9 20 6e 3d 79 41 05 bd 2d 0c 84 bd 42 8d 02 3e
       0.058136854 -0.032533143 -0.06447635 0.12749198
000040 0c 32 8f 3b 91 f3 1e 3e af c5 80 bd 34 54 5d bd
       0.0043699797 0.155226 -0.06287705 -0.05403538
000050 5c c4 5f 3d 3d c8 1c 3e 2e 56 29 3e 6d b7 ce 3d
       0.054630622 0.1531076 0.16536781 0.100935794
000060 af 2e 0d bd 82 2c 62 bd ff 57 17 3c 14 79 31 3d
       -0.03446835 -0.055218227 0.0092372885 0.04332836
000070 ba 67 4b 3d 9c c4 08 3e 05 37 78 3d 78 64 91 bd
       0.04965947 0.1335625 0.060599346 -0.07099241
000080 11 a1 1a bd 04 24 b0 3d 34 4d 6b bd f3 1b 64 3d
       -0.03775126 0.086006194 -0.057446674 0.055690717
000090 2a f1 4a 3e 92 b0 13 3e b7 a4 ec 3d 9e 3e 07 3e
       0.1981856 0.14422825 0.11554854 0.1320748
0000a0 f9 14 01 bc 86 a1 02 3e ad ac f6 3d 72 c2 04 3e
       -0.007878535 0.12756929 0.12044654 0.129648
0000b0 fd ee d1 3d 32 e2 ad bd cd 43 23 be 4e f5 1e be
       0.102506615 -0.08490409 -0.15943833 -0.15523264
0000c0 a7 6c 0b 3e 4a c0 03 3e 25 e4 18 3e f8 ec 75 3c
       0.13615666 0.12866321 0.1493078 0.015010111
0000d0 ed 07 42 bc a6 f7 ec bc 3b c4 cf 3d 2e 15 8c bd
       -0.01184271 -0.028926682 0.1014485 -0.06839977
0000e0 09 d0 70 bc c8 8c 15 3a 51 53 85 3c 82 03 89 3d
       -0.014698037 0.0005704877 0.01627508 0.06690122
0000f0 5e 2f 92 3d 6d 65 f9 bd 55 2e ef bd c8 70 b4 3d
       0.07137941 -0.121775486 -0.11678759 0.08810574
000100 d3 c3 29 3e b2 e6 d4 3d d0 ee a6 bc 84 e9 7a bd
       0.16578607 0.10395564 -0.020377547 -0.061257854
000110 06 28 e3 3d 6a 0c b7 3d 04 51 9a 3d 50 da ca bc
       0.11091618 0.08937915 0.07534984 -0.024762303
000120 6b b6 2a 3e 86 f0 06 3e 11 fa 8e bc 82 de 4d 3d
       0.1667115 0.1317769 -0.017453225 0.050261028
000130 2d 52 20 3d de a3 62 3c c8 28 af bc 6f e2 a4 bd
       0.03914087 0.013833014 -0.02138175 -0.08051001
000140 35 52 c5 bc 7d 2c 94 3d 08 79 c7 ba 11 b9 a7 bd
       -0.02408705 0.07235048 -0.0015218565 -0.081895955
000150 f8 d7 af 3d 52 a7 6e bd 8e 3f b8 3c 23 35 53 3d
       0.08586115 -0.058265038 0.022491243 0.051564347
000160 56 d4 2a 3c b1 54 a7 bd c7 ff 02 3e 3c ad 26 3e
       0.010426601 -0.081704505 0.12792884 0.16277021
000170 fa 54 1f bd df c2 0a be e5 4a 98 3d a3 73 8d bd
       -0.0388994 -0.135509 0.0743616 -0.069068216
000180 d6 3a ba 3d 70 e0 98 bc 27 f6 2e ba 75 fa 5b 3d
       0.09093253 -0.018661708 -0.0006674253 0.05370565
000190 eb a0 98 3e a9 ac 2a 3e 33 78 7d bd e7 d9 02 3e
       0.2981027 0.16667427 -0.06188221 0.12778436
0001a0 82 e2 21 be 86 03 72 bd 3b e9 73 bd 98 47 f5 3d
       -0.15809062 -0.05908539 -0.059548598 0.11976546
0001b0 0e 99 d7 3d b6 ab ac 3d 7f 7a 80 3d 50 4b 1e 3e
       0.1052724 0.08431189 0.06273364 0.15458417
0001c0 87 50 29 bb 09 da 2f 3e 8f 7d db 3d e0 81 0a 3b
       -0.0025835352 0.17173018 0.10717308 0.002113454
0001d0 d4 d3 f3 bd ab 50 55 3d c0 d0 26 3e ec 75 52 bd
       -0.119056374 0.052078884 0.1629057 -0.05138199
0001e0 38 f3 67 bd a0 a1 2a 3d 7f 2d 4f bd 3b 99 fc 3d
       -0.056628436 0.041658044 -0.050580498 0.12333914
0001f0 f0 60 4c bd 6b 0a 17 be ec 61 dc 3d d3 62 86 bd
       -0.049897134 -0.14750068 0.107608646 -0.06561818
000200 9d be 76 3d 32 19 fc bd c9 dd 8b 3d 06 21 32 3b
       0.060240377 -0.12309493 0.068294115 0.0027180328
000210 64 ab 56 be c5 3e 70 be 54 e2 64 bd 7b 5e 86 be
       -0.20963818 -0.23461445 -0.055879906 -0.26243958
000220 b5 31 24 bd 03 81 40 bc 41 5d c5 bd 84 44 3c be
       -0.040086467 -0.011749509 -0.096369274 -0.18385512
000230 83 9f b5 be e1 46 2b be a3 a2 24 be ff 8b 14 be
       -0.3547326 -0.16726257 -0.16077666 -0.1450653
000240 54 ee 1c be 64 8e 89 be 3d c4 02 3e 35 ab f1 3c
       -0.1532529 -0.26866448 0.12770171 0.029500583
000250 08 63 ab bd f5 16 3d be 3b ac 19 bd 36 32 f7 bd
       -0.08368498 -0.18465789 -0.037517767 -0.12070124
000260 70 36 21 be 4b 11 65 be ea d9 d3 bc 8e 9d 68 be
       -0.15743423 -0.22369878 -0.025860745 -0.22716352
000270 12 82 29 bd 2e dd 3b be 59 66 a5 bd 10 57 21 be
       -0.04138381 -0.18346092 -0.08076162 -0.15755868
000280 bb bb 01 be 6a 48 da bd 9a d4 e2 bd 90 a6 7a be
       -0.1266927 -0.10658343 -0.11075707 -0.24477601
000290 a5 d4 19 be a7 02 b8 3c ac e3 71 bd 57 58 ac bd
       -0.15022524 0.022462202 -0.059055015 -0.08415287
0002a0 5a d6 1b be 6a f7 c9 bd 4d 8a a6 bd 8b b3 22 be
       -0.15218487 -0.098616436 -0.081318475 -0.15888803
0002b0 2e 87 14 be 2f 39 80 be 7c 2b 90 be fe 94 7b be
       -0.14504692 -0.25043628 -0.28158176 -0.24568555
0002c0 48 4d a3 be 63 4a 71 be 50 f3 36 be 0e 4e 5b bd
       -0.31894898 -0.23563533 -0.17866254 -0.053541236
0002d0 32 ed 81 be 46 bb 00 be 51 c4 cb bd 21 e6 00 bd
       -0.25376278 -0.12571439 -0.09949554 -0.031469468
0002e0 99 ee 33 be 4e 4b 21 3d 41 ec 99 3c f0 e5 39 bd
       -0.17571487 0.039378457 0.018789412 -0.0453853
0002f0 ca 9e 25 be 57 c1 07 bd 4b 7e 4a 3d 17 a3 a2 bc
       -0.16173854 -0.033143368 0.04943685 -0.019853158
000300 83 96 39 be 3c ec 2a be eb 5f 78 be 1b 53 88 be
       -0.18123822 -0.16691679 -0.2425534 -0.26625904
000310 3e 53 61 be 25 b1 a5 bd fd 4f 96 be 5b a3 82 be
       -0.2200441 -0.08090428 -0.293579 -0.25515255
000320 c0 91 5b bd 44 ec 53 be 46 d3 e7 3d 15 b7 c9 3d
       -0.053605795 -0.20695597 0.11319594 0.09849373
000330 d9 41 17 be b0 ac 63 be 8f b0 86 be 86 65 c8 bd
       -0.14771213 -0.22233844 -0.2630658 -0.09784989
000340 29 4d ab 3d 46 91 8e 3c d1 bb 86 be 36 56 83 be
       0.083643265 0.017403256 -0.26315168 -0.2565171
000350 8f 91 5e 3c c6 be 63 3d 6f 97 1b be 59 e3 60 be
       0.013584509 0.055601858 -0.15194486 -0.21961726
000360 c7 a4 90 be 2e 2f 82 be 54 6c ac bd da 53 32 be
       -0.28250715 -0.2542662 -0.084190995 -0.174148
000370 0b 47 dc bd 59 8b a9 be 16 81 06 be d3 bd 8c be
       -0.10755738 -0.33114126 -0.1313518 -0.27488574
000380 09 31 01 be d8 6e d6 bd be d0 33 be 8a 0b 6e be
       -0.12616362 -0.104703605 -0.17560098 -0.2324659
000390 a7 71 8c be ea e1 59 be 4d d1 0c be bb e7 19 be
       -0.2743046 -0.21277586 -0.13751717 -0.15029804
0003a0 63 83 48 be 7b ce b0 be be 7e a4 bc d3 56 58 be
       -0.1958137 -0.34532532 -0.020079967 -0.21126871
0003b0 aa 47 c7 bd b5 84 c5 bd b9 2f a3 bd 09 46 66 bd
       -0.09730466 -0.096444525 -0.07968087 -0.056219134
0003c0 10 7f ba 3d 59 4f 4b bc 7d 8d 9c be 49 af 87 be
       0.091062665 -0.012409055 -0.30576697 -0.2650092
0003d0 83 24 06 be 8a 71 e0 bd 29 78 5e 3d a9 bf ff bd
       -0.13099866 -0.10959156 0.054313812 -0.12487728
0003e0 de e7 1f be 94 60 cd bd d7 65 ff bd 07 19 a3 be
       -0.15615794 -0.100281864 -0.12470596 -0.31855032
0003f0 d3 5d 73 be 75 9d 8e be bd 73 ab be 39 47 93 be
       -0.2376626 -0.27854505 -0.3348674 -0.28765276

rnn.weight_hh_l0 f4 [192, 64]
000000 d4 e2 16 bd 9e 16 07 bd 92 37 a3 3a b2 bc bb 3c
       -0.036837414 -0.032980554 0.0012452474 0.022917125
000010 56 94 e5 bb 96 53 8f 3d 6c c9 c2 3c 56 5c a7 3d
       -0.0070062084 0.069983646 0.023777686 0.081719086
000020 d8 a3 8c 3c c7 a0 a9 bd 82 fd 11 be 57 c9 05 3c
       0.01716797 -0.08282619 -0.14256862 0.008165679
000030 44 18 ed 3d 1d c1 33 3d ed 8c 6b bd 66 bf 3b 3d
       0.11576894 0.04388534 -0.057507444 0.04583683
000040 fc b8 af 3c 15 f9 0c be 28 d3 11 3b 8a 1a 65 bb
       0.021450512 -0.13766892 0.0022251103 -0.0034958445
000050 2f 26 e1 3d cd d6 1c 3d b7 85 a5 bd 79 75 e4 3c
       0.10993611 0.038290787 -0.08082145 0.027888047
000060 91 73 94 3d 8d 87 12 3e 56 98 0b be 71 24 01 be
       0.07248605 0.14309521 -0.1363233 -0.12611558
000070 7d 7f 8d 3d 33 e0 db bc c5 d8 dc bd 7f e4 c0 3c
       0.06909082 -0.026840305 -0.10783533 0.023546455
000080 d7 63 6b 3c b1 29 91 bd 6c 32 ff bd 47 bf 21 3d
       0.014367065 -0.0708803 -0.12460789 0.039489057
000090 7d 4c 77 bc 9e 50 dc bb 9a c0 f4 3d 9b 4e 39 3d
       -0.01509392 -0.0067234775 0.11950798 0.04524098
0000a0 ad 8c 08 3e 34 ef b9 3c 98 7e 12 3c 86 ec 8c bc
       0.13334914 0.022697069 0.008941315 -0.017202627
0000b0 07 eb 2a bd 53 b9 d5 bd 43 a4 ca 3b 91 7b be bc
       -0.041728046 -0.104357384 0.0061841323 -0.02325228
0000c0 82 d3 1d 3d ea 65 c1 bc a2 1d c5 bd 62 4b 73 3d
       0.038531788 -0.023608167 -0.09624793 0.059398063
0000d0 42 dc d9 3d ea 43 82 bd 0b 6d 6f 3c 9b 18 00 bc
       0.10637714 -0.0636061 0.0146134 -0.007818366
0000e0 d1 6e cc 3d 5e a0 ab 3d 2c 8f a7 3c 9b d8 69 3d
       0.09982074 0.08380197 0.020454012 0.057091337
0000f0 60 4e 10 3d 00 78 c4 bc 0f ae 7b 3d c3 9c 2e 3d
       0.035230994 -0.023983002 0.061445292 0.04262997
000100 af d6 8b 3d 2e 0e c7 3d 31 cb 9b 3d 9c 81 c1 bc
       0.06828057 0.097195014 0.07607115 -0.023621373
000110 b3 bf df 3b 03 2c b3 bd 85 b4 a6 3d e1 a6 e7 3c
       0.0068282722 -0.08748629 0.081399 0.028277816
000120 f5 53 e4 3c fd 38 a2 3c aa 64 9d bd 35 db 70 3d
       0.027872065 0.019802565 -0.07685216 0.058802802
000130 0e ec c0 3d 63 aa a0 3b 60 53 b9 3d cd 5d 48 3d
       0.09420024 0.004903124 0.09049106 0.04891758
000140 2e 0f 9b bd b1 0b a0 bc ba 1b 41 bb b0 58 e7 bd
       -0.07571255 -0.019536825 -0.002946599 -0.11296213
000150 0c 2d ed bc be bf f4 bd ca 7f 03 3e ef c9 8c bd
       -0.028952144 -0.119506344 0.12841716 -0.06874453
000160 18 88 7b bb fd 84 de bc 86 3f 2a 3d d8 5d 65 3d
       -0.0038380679 -0.027163023 0.041564487 0.0559977
000170 a7 8c 4e 3d ef 78 90 bd 83 45 f0 3c 11 e4 f5 bd
       0.050427105 -0.07054316 0.02933002 -0.12006391
000180 f3 48 a7 bc 09 fb 40 3c 87 d3 6f bc 72 29 03 3e
       -0.020420527 0.011778601 -0.014637834 0.12808779
000190 63 ae ce bd 50 b7 3d 3d 5a 9e b3 3d 7c 9a 95 ba
       -0.100918554 0.0463174 0.087704375 -0.0011413838
0001a0 7b 0e af bd 9e d4 ca 3d dc 94 ea bc fb 3e d3 bd
       -0.08547684 0.09903835 -0.028635435 -0.10314747
0001b0 60 d2 cc bb 29 f8 4c 3c b6 b3 43 3d 0d 67 e5 bc
       -0.0062506646 0.012510338 0.047778808 -0.02800324
0001c0 5f 11 b0 bd 55 1a 86 3c 00 11 01 3d 34 96 c6 bd
       -0.08597063 0.016369978 0.031510353 -0.09696618
0001d0 99 6d ff bc 29 2e d6 3d 20 81 eb 3d 11 13 94 bc
       -0.03118019 0.10458023 0.11499238 -0.018075498
0001e0 4f 84 4c 3d 6c 3f cd bd e3 70 66 3d b6 01 ca bd
       0.049930867 -0.100218624 0.05626 -0.098636076
0001f0 6e b2 c9 3d 6b 49 97 bc a1 5a b8 3d ea 43 b0 3d
       0.09848486 -0.018467626 0.09001661 0.086067036
000200 d5 ea 46 bd 38 28 fd bd 70 4b 9c ba c7 29 45 3d
       -0.048563797 -0.12361187 -0.0011924338 0.048135545
000210 80 d2 51 bd fc c8 a0 bd 18 4b 16 3d ab 7c 3c 3c
       -0.05122614 -0.07850835 0.03669271 0.011504333
000220 b6 f5 dd bd 59 0a 9b bd 15 2a d9 3d 9a 06 a1 3d
       -0.10837881 -0.07570333 0.1060373 0.07862587
000230 07 18 2a bd 77 fc 85 3d bf c2 9a bd 24 01 f2 3d
       -0.04152682 0.065422945 -0.07556676 0.11816624
000240 1c 78 f8 3d e3 9c 92 bd 62 61 d5 bd ca 09 1c 3d
       0.12132284 -0.0715883 -0.10418965 0.038095273
000250 09 f0 83 3b 71 0d b7 3d 3d 7c 57 3d 59 8b 37 3d
       0.004026417 0.089381106 0.052608717 0.044810627
000260 20 7b 92 3d 1a 7c ab 3d 52 1f 83 bd 87 5c e6 3d
       0.071523905 0.0837328 -0.06402458 0.11248117
000270 d5 1a a9 bc b2 66 36 bd 29 79 a1 3b f9 92 e3 3d
       -0.020642677 -0.04453153 0.0049277735 0.11112017
000280 a6 c8 22 3d 6a 0c 03 3d 42 9f 5c 3d 63 f0 e8 3c
       0.039742135 0.03199426 0.053862818 0.028434938
000290 cc 95 ef 3d c8 94 a4 bc f5 fd ec 3b 70 a7 fe 3a
       0.11698493 -0.020090476 0.0072324225 0.0019428562
0002a0 97 c5 e9 bd 0a 3f 9a bd 48 56 55 3d d9 44 91 3c
       -0.114146404 -0.07531555 0.052084237 0.017733024
0002b0 4c 40 46 bc 93 8b 9a bc 6f d4 bd 3d 60 27 10 bd
       -0.0121002905 -0.018865382 0.09269034 -0.0351938
0002c0 42 21 70 bd 3c 45 c6 3d de 58 9a bd 4d cc 57 bd
       -0.058625467 0.09681174 -0.07536481 -0.05268507
0002d0 de f9 4e bc 4e 9e 84 bd 4f 95 c7 3d de 21 6d 3c
       -0.012632815 -0.06475507 0.09745275 0.014473407
0002e0 a0 59 07 bd 5d db 29 3d 95 fd b9 3d 99 67 c6 bc
       -0.033044457 0.041468967 0.0908157 -0.024219321
0002f0 4f e4 83 bd 72 e4 99 bd 1a 88 c1 3b 90 89 d5 3d
       -0.06440031 -0.075142756 0.005906117 0.104266286
000300 75 e7 e6 bd 91 05 04 be 79 48 b6 3d 00 e8 6a 3d
       -0.11274616 -0.12892748 0.08900542 0.05735016
000310 bd 44 a8 bd ca 7e 3a 3d 06 3a b9 3d 5b b4 e9 3d
       -0.08216236 0.04553107 0.0904427 0.11411353
000320 29 db 8c bc 7f 5c 18 bd 7f 14 e7 bc 00 93 ec 3d
       -0.017194347 -0.037197586 -0.028208015 0.115514755
000330 cd 90 e2 3d b7 b4 db bc fd 6a 9a bd b0 37 64 bd
       0.11062775 -0.02681957 -0.07539938 -0.05571717
000340 bf 59 4b bd d8 8c d9 3d 00 00 de 3c 3a c2 53 bd
       -0.049646135 0.10622567 0.02709961 -0.0516989
000350 31 8f 9b 3b 36 e9 4c 3a 9e b7 08 bc a9 da 33 3d
       0.0047472944 0.00078167336 -0.008344559 0.043909702
000360 86 d5 98 bd 84 1f 4f 3d 37 e4 2d 3d f4 f3 e6 bd
       -0.07462601 0.050567165 0.04245397 -0.11276999
000370 d8 b8 0e 3c b3 40 1d 3c 62 21 c4 bd 47 aa cc 3d
       0.008711062 0.009597945 -0.0957668 0.09993415
000380 b0 6d a9 bd 63 49 a1 bd e2 01 02 bb 4c 3b ce bd
       -0.08272874 -0.078753255 -0.0019837548 -0.10069904
000390 ed 56 56 bb 85 75 01 be 1b 66 48 bd 39 be 05 be
       -0.003270562 -0.12642486 -0.0489255 -0.13060845
0003a0 4f 42 95 38 90 c2 02 3e f3 c6 00 be 86 9b 1c 3d
       7.1172246e-05 0.12769532 -0.12575893 0.038234256
0003b0 42 c9 04 be 81 e5 e7 3c 6a 00 64 3c 1d 89 54 3c
       -0.12967399 0.028307678 0.013916114 0.0129721435
0003c0 fe 6b 84 3d db d4 80 3d 2c 4f e7 bd 91 79 49 3c
       0.064659104 0.06290599 -0.11294398 0.01229705
0003d0 63 c8 25 bd e8 0d 06 3d 4d cc ed 3d 65 94 29 bd
       -0.040474307 0.032728106 0.11611233 -0.041401286
0003e0 85 90 e7 bc e5 f6 cd bd 01 78 22 3d fa f3 0a 3c
       -0.028267154 -0.10056857 0.039665226 0.00848102
0003f0 fe ef 5c bd 6e cd 2d 3c 46 b2 c5 bb d3 3c 14 3c
       -0.053939812 0.01060806 -0.0060332147 0.009047705

rnn.bias_ih_l0 f4 [192]
000000 70 60 7e bb 44 7c b7 3d 3b 0e e7 3c 72 56 ff 3d
       -0.0038814805 0.08959249 0.028205028 0.1246766
000010 5e ed 05 3e f3 33 80 3d ba 0e 9a 3b 8b e5 4e bd
       0.1307883 0.062599085 0.0047014626 -0.050511878
000020 e6 13 cb 3d 66 dc dd bd e7 a3 03 bc 11 38 3b 3d
       0.09915905 -0.10833053 -0.008034683 0.045707766
000030 eb 85 8b 3d e6 42 ae bd 4d 55 c1 3c bd 75 f4 3d
       0.06812652 -0.085088536 0.023600245 0.11936519
000040 73 8d d4 3c 1e f1 a3 3d ab 05 af 3d dd df b1 bc
       0.025946354 0.08004974 0.08546003 -0.021713192
000050 d6 12 da 3d 94 82 ca 3d 78 e3 11 3d 5b b5 80 3d
       0.10648124 0.09888187 0.03561732 0.06284591
000060 65 33 94 bd 99 05 09 3e c2 a2 b0 3c be bf 38 bd
       -0.07236365 0.13381042 0.021561984 -0.045104735
000070 b8 c5 6b 3d 65 d7 9b 3d 58 2c eb bd c1 af f1 3d
       0.057561606 0.076094426 -0.11483067 0.118011005
000080 76 b9 a8 3d 79 56 d7 3d bb ef c7 3d 7a d6 3b 3c
       0.08238499 0.1051454 0.09762522 0.011464709
000090 1e 13 f4 3d 92 c8 29 bd ad 5a d7 3c 54 b6 68 3d
       0.11917709 -0.041451044 0.026288355 0.056814507
0000a0 ee ad c8 bd 14 2c 9c bd dd 80 bd bc 1e 58 db bd
       -0.097987995 -0.07625595 -0.023132736 -0.107101664
0000b0 06 79 b6 3d 58 82 99 bc 51 56 0f 3d 80 10 4b 3d
       0.08909802 -0.01873891 0.034994427 0.049576283
0000c0 d7 b1 a7 3c af 87 a5 3d c4 c5 b2 3b 95 cc df bd
       0.020470543 0.0808252 0.0054557044 -0.10927693
0000d0 d8 50 b6 3d a5 05 50 3d 4f f0 07 3e c6 c8 2f bd
       0.089021385 0.050786633 0.13275264 -0.04291608
0000e0 93 4f ab 3d ca 61 31 bd 73 38 12 bd 62 7b 1e 3d
       0.08364787 -0.04330615 -0.035698365 0.038691886
0000f0 d4 9d f2 3a 25 ca 88 3d 6f f1 0c bd 9e 35 7a bb
       0.0018510171 0.06679181 -0.034409937 -0.003817893
000100 f9 93 cb bd d8 a4 7c 3d 0a b7 37 be 46 b6 88 be
       -0.09940333 0.061680645 -0.17940918 -0.26701564
000110 12 c5 c4 bd 33 3f a5 bd ce 78 ac be c5 40 45 be
       -0.09607901 -0.08068695 -0.33685917 -0.19262989
000120 7f d0 5a be 55 19 b5 bd fb f0 38 be 01 d8 11 bd
       -0.21368597 -0.08842722 -0.18060677 -0.035606388
000130 87 eb 2f be 29 85 47 be f0 6a 7a be 6c 45 82 bc
       -0.1717969 -0.1948439 -0.24454856 -0.015902244
000140 a4 35 48 be 78 f6 92 be 95 70 d9 bd 30 25 9c bc
       -0.19551712 -0.28703666 -0.106171764 -0.019060701
000150 ef 05 5e be 09 80 7f be a3 44 db bd 9b 26 c4 bd
       -0.21681951 -0.24951185 -0.10706451 -0.09577676
000160 4f f9 cb bd 7c a3 1d be 14 18 a5 be 91 83 61 bd
       -0.09959661 -0.15394396 -0.32244933 -0.055057112
000170 9d 10 1b be f2 7c f6 bd 1d 6e 46 be 2a 61 8b bd
       -0.15143056 -0.1203555 -0.19377942 -0.06805642
000180 25 3f c3 bd 7e 30 45 be 38 35 6d be df 23 c3 bd
       -0.09533528 -0.1925678 -0.23164833 -0.09528326
000190 e9 41 e0 bd f5 f9 88 3d 4a 7b 1f be 75 24 50 be
       -0.10950071 0.066883005 -0.15574375 -0.20326407
0001a0 81 5e 7d 3d f9 b3 49 bd c8 7f 7f 3c fb 17 2f be
       0.061857704 -0.0492439 0.01559443 -0.17098992
0001b0 30 0e 44 be 90 bc 8b be 61 0e 70 be e4 84 78 bd
       -0.19146037 -0.272923 -0.23442985 -0.06067361
0001c0 54 5d 50 be 42 0b 47 be c4 29 57 be bd 11 9e be
       -0.20348102 -0.19437888 -0.21012026 -0.30872908
0001d0 0d 72 88 be 06 06 39 bd 7a fe 0f be 01 5c 80 be
       -0.26649514 -0.04517176 -0.14061919 -0.25070193
0001e0 26 50 28 3c f3 80 6a be 45 aa f4 bd e6 f9 e1 bd
       0.010273015 -0.22900753 -0.11946539 -0.110339925
0001f0 a0 6f 95 be 61 18 13 be fb 72 23 be 78 9b 7f be
       -0.29186726 -0.14364769 -0.1596183 -0.2496165
000200 29 ad 11 bd 93 7b 1f 3c ec 68 ca bd 26 38 c8 ba
       -0.03556553 0.009734052 -0.098832935 -0.0015275523
000210 fe 44 dd 3d c7 79 3f 3d 99 7b 5f bd f1 29 e5 bc
       0.10804175 0.046746995 -0.05456123 -0.0279741
000220 74 8b b3 bd c1 c0 6b bd 66 b7 25 3c cf 0f f6 3d
       -0.08766833 -0.05755687 0.010114526 0.12014734
000230 2e d4 d8 3d 05 5c b7 3d 54 05 e7 3d 22 3e c1 3a
       0.10587345 0.08953098 0.11280313 0.0014743248
000240 0c db c1 bc 61 85 db bd da 2a ea bd 88 08 7f 3d
       -0.02366402 -0.107187994 -0.114339545 0.062263995
000250 47 76 39 3d df ad 03 bd c7 65 8d 3d 13 7b d3 bd
       0.045278814 -0.03214824 0.06904178 -0.10326209
000260 40 4c a3 bd a0 ad 08 3d 79 58 04 be 63 94 79 bb
       -0.07973528 0.033368707 -0.12924375 -0.003808283
000270 f0 c9 0b 3c 8b 8d fc bb b7 75 91 bb 67 be c1 ba
       0.008532032 -0.007707303 -0.0044390815 -0.0014781476
000280 49 e9 c9 3c 7e 9f c3 3d 11 df 89 ba bb 79 02 3d
       0.024647372 0.09551905 -0.001051875 0.031854372
000290 6f 8a c0 3d b1 a4 97 bc 12 cc a9 bd fe ea 27 3d
       0.09401404 -0.018511148 -0.082908764 0.04099559
0002a0 88 f6 b1 3d 1a 2a 8a 3d 86 f5 92 bd 79 94 d2 3d
       0.086896 0.067463115 -0.07175736 0.10282225
0002b0 2f 81 db bd b5 61 3e bc 7a 63 96 bd ea bc 5d 3d
       -0.10717999 -0.011619975 -0.073431924 0.05413524
0002c0 91 a1 be bd 63 b2 8f bd 15 a7 a3 3d 0a 37 31 3d
       -0.0930816 -0.070164464 0.07990853 0.04326538
0002d0 28 25 20 3c bd 9e 35 bd 56 04 8d 3d bd 18 96 3b
       0.009774484 -0.044340838 0.06885593 0.0045805858
0002e0 ed 1d 81 3d cc e4 77 3d dc fa 98 bd 33 61 a1 3d
       0.06304536 0.060520932 -0.07469723 0.078798674
0002f0 b2 4c a1 3d 04 30 d7 3d ef 84 5e bd 6b c6 07 bd
       0.078759566 0.10507205 -0.054325994 -0.03314821

rnn.bias_hh_l0 f4 [192]
000000 30 5c d0 bd 9f 62 0a 3d cb 8a aa 3c d2 04 83 bd
       -0.10173833 0.03378546 0.020818135 -0.06397404
000010 e3 d8 10 bd 62 12 0a bd 0d 2b c9 3d d0 af 33 3d
       -0.03536309 -0.033708937 0.098226644 0.04386884
000020 5e c3 95 bc 04 22 91 3d 72 21 e3 3d 3f 47 3a 3c
       -0.018281635 0.07086566 0.110903636 0.011369525
000030 1e ed 91 bd de c1 e7 bc 8f b7 cc 3d de 38 06 bd
       -0.07125305 -0.028290685 0.099959485 -0.032769077
000040 63 bc 8d bd 87 97 bb 3b b2 da 99 3d 53 29 8a 3d
       -0.069206975 0.0057248506 0.07512416 0.06746163
000050 b4 27 50 bd 78 d9 b3 bc cb ae 8a 3d ad 1b 81 3d
       -0.050819114 -0.021954283 0.0677162 0.06304107
000060 58 34 be bd 8f 12 9f 3d 9b 1b 3b bd 25 3f 8d bd
       -0.092873275 0.07767212 -0.045680624 -0.068968095
000070 a6 61 ee 3c d0 ae 7b bb 4c 25 65 bd d4 ea bc bd
       0.029099297 -0.0038403757 -0.055943772 -0.092244774
000080 9d 1e 75 bb cb 3a cd bc 6f a0 a9 3d 3f 67 88 bb
       -0.003740228 -0.025052449 0.082825534 -0.0041626985
000090 0f bd 88 3d d5 23 dd bc b0 ae 24 bc 98 82 b5 bd
       0.06676685 -0.026994625 -0.010051414 -0.088627994
0000a0 8b e2 ce 3b 91 57 fc 3d 5f d7 bd bd eb b7 07 bd
       0.006313627 0.123213895 -0.092695944 -0.033134382
0000b0 93 b4 38 bb 45 ff af 3d d2 c1 c8 bd de b3 d3 bd
       -0.0028183802 0.08593611 -0.09802593 -0.10337041
0000c0 d5 59 0b bd d8 13 06 bc 4e 65 82 3d 61 d4 9a bc
       -0.034021217 -0.008183442 0.063669786 -0.018900098
0000d0 c8 55 8e 3d a6 1b f1 3d c7 2e d8 bd ae 4a a8 3c
       0.06949955 0.11772852 -0.10555797 0.020543423
0000e0 62 b6 58 3d d7 e0 a9 3d cb d4 44 bd d4 45 ab 3d
       0.05290831 0.08294838 -0.048054498 0.08362928
0000f0 4f ed 41 3d 4c 1e 03 3e 25 b7 d5 bd 36 14 c6 3c
       0.047345456 0.12804526 -0.10435323 0.02417956
000100 a3 61 a5 bd 8a 9c 1b 3e 1d 34 2c be f7 20 7e be
       -0.08075263 0.15196434 -0.16816755 -0.24817263
000110 f6 9d c1 bd 24 be f8 bd 44 1c 51 be e7 32 9b be
       -0.09453957 -0.121456414 -0.20420939 -0.30312273
000120 48 94 5b be 16 bb 8c bc a1 5a 55 be 5e 14 bc bd
       -0.21443284 -0.017179053 -0.20835353 -0.09183572
000130 47 68 9b be 84 b1 ba bd 0c 0b 09 be c2 fd 89 bc
       -0.30352995 -0.0911589 -0.1338312 -0.016844634
000140 e0 8a 9e be 1a 07 6c be 2b 59 79 bd fc 06 a1 bd
       -0.30965328 -0.23049584 -0.060876053 -0.0786266
000150 3b 0c 99 be 24 b1 9a be d6 bf 40 be 35 53 aa be
       -0.29892144 -0.30213273 -0.1882318 -0.33266607
000160 2c 69 56 be 31 5a 79 be b1 25 83 be b1 3d f0 bd
       -0.20938557 -0.24350812 -0.25614694 -0.11730517
000170 b5 b7 63 3d 9d 10 0b bd 04 0a cd bd aa 5d 92 bd
       0.05559512 -0.03395139 -0.10011676 -0.07146771
000180 9c be 9e be da c8 74 be 8e bb b2 bd 5b 8e 71 be
       -0.31004798 -0.23904744 -0.087271795 -0.2358946
000190 5f e8 37 be 48 16 c8 3d 9d 5d 27 be 20 40 72 be
       -0.17959736 0.09769875 -0.16344304 -0.23657274
0001a0 5b 43 8b bd 7d 48 b4 bd 70 9e 83 3d 4f cf 97 be
       -0.067999564 -0.088028885 0.06426704 -0.2965035
0001b0 5c ad 89 be 7f 35 a5 be 09 ef e8 bd c1 26 24 be
       -0.26890075 -0.32267377 -0.11373717 -0.16030408
0001c0 ca 10 42 be 28 cb 26 be c0 c0 80 be 0d 9f 8e be
       -0.18951717 -0.16288435 -0.25147057 -0.2785572
0001d0 c0 3c b6 be 34 2c 5e bd 0a ee 73 be a7 fe 6c be
       -0.35593224 -0.054241374 -0.23821273 -0.23144017
0001e0 50 00 f8 3d 5f 40 73 be b3 1a 17 be 99 0a 53 bc
       0.121094346 -0.23755024 -0.14756279 -0.012880945
0001f0 11 a6 f7 bd 66 a8 5e be c4 99 a1 be 09 fb ac be
       -0.120922215 -0.21743926 -0.31562626 -0.33785275
000200 16 98 2a 3c cc 33 da bc b9 92 ee 3d 86 14 7c bd
       0.010412237 -0.026636027 0.11649079 -0.06154301
000210 69 f1 05 3e e0 db 07 3d a9 d1 3e bd 7b 87 a5 bd
       0.13080372 0.033168674 -0.046586666 -0.080824815
000220 94 57 b1 ba eb 4c a8 bd 0b 12 2b bd b5 c2 2d bd
       -0.0013530129 -0.08217796 -0.041765254 -0.042422015
000230 2f ed 62 3c a2 94 7f 3c 98 89 da 3d 9a ba b2 3d
       0.013850494 0.015599402 0.10670775 0.08726998
000240 50 92 32 bd 09 f8 8a bc 3c 63 84 3d 5e 37 ec bd
       -0.043596566 -0.016963976 0.0646424 -0.11533998
000250 87 0e 5e 3d 14 9c 86 3c 55 6d 38 bd a1 d6 5f 3d
       0.054213073 0.016431846 -0.045026142 0.054648045
000260 53 1e eb bd ce 49 12 3d 3d af af 3d a2 d8 53 bc
       -0.11480393 0.035714917 0.08578346 -0.012930067
000270 c6 15 3e 3d eb e4 0c bd 18 67 94 bd e6 14 a0 bd
       0.046407484 -0.034398 -0.07246226 -0.07816486
000280 56 63 83 3d 5e b9 81 bc 34 53 e0 bc 59 4c a5 bd
       0.06415431 -0.01583546 -0.027383424 -0.08071203
000290 82 b2 9c 3c e4 f9 fa bd a3 6c a8 bd 35 66 98 3d
       0.019128088 -0.12254694 -0.08223846 0.074413694
0002a0 41 34 d8 3d 1c 7a 1b bc 78 77 24 bd 2a 11 19 3c
       0.10556842 -0.009489562 -0.040152997 0.009342471
0002b0 06 09 1d bc a5 82 9c bd a6 b8 e0 3d 69 f0 6d bd
       -0.009584671 -0.07642106 0.10972719 -0.0580906
0002c0 7a 15 e3 b9 41 3c 3c bd bd b0 3d bd e2 53 6a bc
       -0.00043312815 -0.0459559 -0.04631113 -0.014302226
0002d0 e0 b8 be bd 0b 69 95 3b 1e 7e a0 3d 16 52 41 bc
       -0.09312606 0.0045596412 0.07836555 -0.011799356
0002e0 e2 b0 94 bc 85 4a 1a 3d 98 94 c0 3d 48 59 48 3d
       -0.01815075 0.037668724 0.09403342 0.04891327
0002f0 29 9d 2e 3d 84 9c 6c bd 5b 6c 07 bd 5a 70 8a bd
       0.04263035 -0.057766452 -0.03306232 -0.067597106

output.weight f4 [1, 64]
000000 f1 47 cc bb ca 15 43 bd b1 e8 12 be 95 ed 0f bd
       -0.006234162 -0.0476282 -0.14346577 -0.035138685
000010 8d 37 80 3c 7a 8b 8a bd b4 56 09 3e ba 54 a8 3d
       0.015651489 -0.06764884 0.13411981 0.08219285
000020 1a e2 20 bd d8 51 2e bd c7 0c d2 bd b0 60 03 3d
       -0.039278127 -0.04255852 -0.10256343 0.03207463
000030 1c ca 03 3e fc ca 2f 3d 12 24 c0 3d c2 75 21 3c
       0.12870067 0.04291819 0.0938188 0.009854736
000040 26 17 2a bd 95 23 f7 bd a9 59 b7 3d 59 79 ea 3c
       -0.041525982 -0.120673336 0.08952648 0.028622316
000050 d7 39 ee 3c c3 04 96 bd 35 c2 8f bd b9 e4 2a bd
       0.029080315 -0.07325127 -0.07019464 -0.041722033
000060 2b 59 0a be ee ab aa 3a cc c1 f7 bd b5 02 00 bd
       -0.13510577 0.001302121 -0.12097511 -0.03125258
000070 5e 48 35 bd 23 9b ce 3c 3f 40 a1 3c fd 5b 1c 3d
       -0.044258468 0.02522046 0.019683955 0.038173664
000080 94 1e bf 3d 08 d1 80 3d 28 f8 d5 bd d0 d6 89 3d
       0.09332004 0.062898695 -0.10447723 0.06730425
000090 cb ec 75 3d b8 d7 3e bd 0b 4b ff 3d a2 6c 37 bd
       0.060040276 -0.046592444 0.12465485 -0.044781335
0000a0 91 23 4b 3c 1f e0 03 3d 89 5a e2 bd 22 cb 3b be
       0.012398616 0.03219616 -0.110524245 -0.18339208
0000b0 cc 1a e2 bd 24 07 88 bd 2d 0b d4 bd c1 16 0e 3d
       -0.11040267 -0.06641987 -0.10353694 0.03468967
0000c0 a8 ea 53 bd 0b 5b d2 3d cf 6a ae bd b7 15 0a 3e
       -0.051737458 0.10271271 -0.08516466 0.13484846
0000d0 27 6a 8a 3d 02 10 b0 bc 41 de a7 3c de 59 0d be
       0.06758528 -0.021492008 0.020491721 -0.13803813
0000e0 1c 0e 85 3d 4d 05 f9 3d c1 42 06 be 7c f9 ed 3d
       0.06496832 0.12159214 -0.13111402 0.11619851
0000f0 02 cb aa bd 3d c5 af bd 49 25 ef 3d f6 95 c3 3d
       -0.08339502 -0.08582542 0.116770335 0.09550087
