trained_models/1a/volume_adi.pt (torch_old, 75023 bytes, 5 tensors)

rnn.weight_ih_l0 f4 [256, 6]
-0.07001884 -0.0044298796 0.010187832 0.024483863 -0.04764947 -0.05979339 -0.020996185 -0.061084647
0.008389467 0.13013288 -0.0853252 -0.009223989 0.1578428 -0.05704609 -0.0056270636 -0.02246402
-0.11638429 -0.012465292 0.13344309 -0.05737135 -0.03563283 -0.08030034 -0.021131508 -0.007237649
-0.02929844 0.0035857134 0.021149317 -0.0516689 -0.07805457 -0.030734979 0.098184735 -0.14075369
-0.068681456 0.07074181 -0.0011306038 -0.045023613 0.07111846 -0.01512335 -0.036927093 -0.06093645
0.156195 -0.051278785 0.0894434 0.04186118 -0.0066050934 -0.10201597 -0.0048617115 0.083263844
-0.044993512 0.06562497 -0.060997043 0.10235025 0.12822407 -0.027991146 0.1432653 0.072443105
0.113425694 0.10666965 -0.02634834 0.049959503 -0.07146421 0.104881406 0.09075336 -0.04244928
0.0043152175 0.004221457 -0.06004404 -0.08209425 -0.013939068 0.05961027 -0.08669269 0.118840575
0.08749964 -0.08596538 0.053791557 -0.05367737 0.057447046 -0.077229954 0.01604662 0.0143289
0.0503816 0.047671787 -0.100749955 0.031482097 0.14028263 -0.031196289 0.08896975 0.06892429
0.0036106878 0.05704823 -0.09211453 0.12598234 0.14925003 -0.09505257 0.013495208 0.00736908
0.05151051 -0.115127414 -0.1288021 -0.11717365 0.06532787 0.07234094 0.1464408 0.073276624
0.1396986 0.07263181 -0.09325473 0.0015327708 0.011399838 -0.021916827 0.111397035 -0.007965229
0.01766678 0.11181841 0.13305995 0.08657836 0.12103794 0.14413632 0.0017631757 0.12997617
-0.060406074 0.08800808 -0.026392788 0.01623595 -0.027656127 0.12263886 0.008277575 -0.07610121
0.10117057 -0.029268423 0.034390856 0.074278265 -0.035793822 -0.070973046 0.010234459 -0.09823437
-0.0721931 0.0018350827 0.13964723 0.12754045 -0.01793363 0.14582321 0.01620163 0.13243073
0.063136496 0.010939198 -0.04716337 -0.06866418 -0.024714826 -0.07258933 0.012007167 -0.0024769478
0.14541149 0.05064836 0.0632298 0.06482185 -0.055957384 0.09134509 -0.037535165 0.0071105673
0.019563384 0.09344347 0.064623944 -0.07424502 -0.0959019 0.026962087 -0.090244465 0.049156733
-0.09054014 0.041926894 0.036872376 -0.13788643 -0.090440005 -0.0629868 0.07425312 -0.010379798
-0.10055504 0.049341 -0.024936626 0.04955604 0.008479042 -0.091913976 -0.09160554 -0.121548496
0.038112473 -0.14561456 0.09213853 0.04808499 -0.039462693 -0.075842194 0.10060715 0.09191122
0.0016147129 -0.06809027 -0.061596833 0.09687845 -0.15914702 -0.082625315 -0.019102989 0.010467253
-0.004426722 0.1009592 0.0663261 0.019800551 0.12632121 0.028258855 -0.039641876 -0.113695644
-0.05231516 -0.09001885 -0.0018199 0.026123138 -0.07155774 0.092224054 -0.007847705 -0.009293685
0.10038824 -0.010848818 -0.08917718 -0.13978165 -0.008311982 -0.0140219 0.07160431 -0.12057205
0.05458013 -0.016233938 -0.05731352 0.033841822 -0.033818822 -0.046130937 0.0001654932 -0.06738095
0.027780239 -0.044497155 0.11378407 0.002715313 0.027252 0.03317723 -0.070334226 -0.06842645
-0.08203022 0.08009578 0.041202635 0.034119207 0.074452005 0.03674996 -0.060780305 -0.055192206
0.07417916 0.06661259 -0.11761854 0.09813119 0.022022462 -0.11561781 -0.06062274 0.021115465
00000000: 0a66 8fbd 8628 91bb ddea 263c 6292 c83c
00000010: 172c 43bd eae9 74bd 3100 acbc e533 7abd
00000020: fa73 093c 8e41 053e fabe aebd 3720 17bc
00000030: 8ba1 213e 29a9 69bd 3b63 b8bb 7706 b8bc
00000040: e35a eebd 393b 4cbc 4ea5 083e 38fe 6abd
00000050: bbf3 11bd 8174 a4bd fc1b adbc cd29 edbb
00000060: 4803 f0bc 4afe 6a3b 5541 ad3c c5a2 53bd
00000070: 13db 9fbd ecc7 fbbc 1415 c93d bc21 10be
00000080: dda8 8cbd 15e1 903d c530 94ba ae6a 38bd
00000090: 8ea6 913d edc7 77bc dd40 17bd 8098 79bd
000000a0: 95f1 1f3e b409 52bd 1a2e b73d a176 2b3d
000000b0: 8a6f d8bb c0ed d0bd fe4e 9fbb 3c86 aa3d
000000c0: 1e4b 38bd 6266 863d 09d8 79bd 029d d13d
000000d0: 2c4d 033e b04d e5bc 24b4 123e 0d5d 943d
000000e0: bb4b e83d 9e75 da3d 79d8 d7bc 56a2 4c3d
000000f0: d45b 92bd 10cc d63d e6dc b93d 4cdf 2dbd
00000100: ab66 8d3b 2654 8a3b bdf0 75bd 0821 a8bd
00000110: b060 64bc e629 743d f08b b1bd b062 f33d
00000120: 0333 b33d 9e0e b0bd 8954 5c3d cddc 5bbd
00000130: 984d 6b3d bd2a 9ebd 3474 833c c3c3 6a3c
00000140: f05c 4e3d 7e43 433d fe55 cebd 5ff3 003d
00000150: 40a6 0f3e 5c8f ffbc c635 b63d 2e28 8d3d
00000160: 4aa1 6c3b 68ab 693d 8ba6 bcbd 8401 013e
00000170: 00d5 183e ecaa c2bd 011b 5d3c 5378 f13b
00000180: affc 523d ecc7 ebbd b3e4 03be bdf8 efbd
00000190: 9eca 853d 7d27 943d 94f4 153e 0e12 963d
000001a0: 260d 0f3e fdbf 943d 56fc bebd 41e7 c83a
000001b0: 63c6 3a3c eb8a b3bc 2124 e43d 9880 02bc
000001c0: ecb9 903c 0d01 e53d de40 083e ff4f b13d
000001d0: bde2 f73d 7998 133e 5c1a e73a 7918 053e
000001e0: 5c6c 77bd 953d b43d b035 d8bc 4101 853c
000001f0: 1a8f e2bc 152a fb3d aa9e 073c f4da 9bbd
00000200: 8432 cf3d 55c4 efbc 6ddd 0c3d 341f 983d
00000210: 8b9c 12bd 515a 91bd 6fae 273c 1a2f c9bd
00000220: fad9 93bd 2887 f03a afff 0e3e f799 023e
00000230: 8ce9 92bc ae52 153e 48b9 843c ec9b 073e
00000240: b54d 813d 523a 333c 612e 41bd ce9f 8cbd
00000250: bf76 cabc b7a9 94bd b5b9 443c 4a54 22bb
00000260: c0e6 143e a874 4f3d a07e 813d 51c1 843d
00000270: 9233 65bd 2213 bb3d 79be 19bd c3ff e83b
00000280: 6443 a03c 4a5f bf3d 8f59 843d c60d 98bd
00000290: 3768 c4bd 98df dc3c 17d2 b8bd 9258 493d
000002a0: 1c6d b9bd 89bb 2b3d 7d07 173d 1a32 0dbe
000002b0: 9c38 b9bd 39ff 80bd 0512 983d 0710 2abc
000002c0: cdef cdbd ca19 4a3d e547 ccbc 46fb 4a3d
000002d0: aeeb 0a3c 653d bcbd af9b bbbd 6bee f8bd
000002e0: d31b 1c3d fc1b 15be 20b3 bc3d c4f4 443d
000002f0: a2a3 21bd 2753 9bbd 1f0b ce3d f33b bc3d
00000300: c6a4 d33a e972 8bbd f64c 7cbd 3568 c63d
00000310: 70f7 22be 7637 a9bd df7d 9cbc d77e 2b3c
00000320: 090e 91bb b2c3 ce3d fad5 873d c434 a23c
00000330: 595a 013e 1d7f e73c 855f 22bd 43d9 e8bd
00000340: 6c48 56bd ce5b b8bd b689 eeba 3100 d63c
00000350: dd8c 92bd f7df bc3d a993 00bc 8a44 18bc
00000360: 5998 cd3d 3ebf 31bc 86a2 b6bd ec22 0fbe
00000370: fb2e 08bc 1cbc 65bc 48a5 923d 7bee f6bd
00000380: 6a8f 5f3d 09fd 84bc 95c1 6abd b99d 0a3d
00000390: 9b85 0abd cbf3 3cbd 3e88 2d39 06ff 89bd
000003a0: 6293 e33c a642 36bd 9f07 e93d 65f3 313b
000003b0: 963f df3c d9e4 073d 640b 90bd 2b23 8cbd
000003c0: 76ff a7bd 4209 a43d 18c4 283d 95c0 0b3d
000003d0: 4b7a 983d 2087 163d c5f4 78bd 3911 62bd
000003e0: 3eeb 973d 2e6c 883d fde1 f0bd 01f9 c83d
000003f0: 7368 b43c 08c9 ecbd 8d4f 78bd 57fa ac3c

rnn.weight_hh_l0 f4 [256, 64]
0.14072466 -0.0716154 0.037534475 0.09054366 -0.06016702 -0.032557134 0.08649347 0.088947
0.105892226 0.049478956 -0.008660901 0.02112716 0.0051364517 -0.021045305 0.027381849 0.10978723
0.011375492 0.017081013 -0.084486134 -0.056381527 0.09981645 -0.030786553 0.06749777 -0.018952623
-0.009236174 -0.00052840525 -0.10206965 0.06780863 0.06636208 -0.016149288 -0.08427006 0.024994407
-0.056653928 0.09934137 -0.025503585 -0.10664165 -0.05627885 -0.062698916 0.04462312 -0.08962017
-0.08093504 -0.14157434 0.06333144 0.046174508 -0.03938763 -0.014324508 0.13077894 0.05082545
-0.093349114 0.027759114 0.03874281 0.116739914 -0.05842332 0.028433926 -0.075913645 -0.13289276
0.140795 -0.08680685 -0.04306151 0.028677009 -0.0824122 -0.0822507 -0.0071059647 -0.117598176
0.09298177 0.07825633 -0.010192337 0.018059652 -0.0539626 0.120076045 0.03546411 -0.04056818
-0.067127354 0.091407254 -0.088617824 0.023652976 -0.070909716 -0.0060471874 0.055500798 -0.03245293
-0.12891911 1.1766213e-05 -0.021783767 0.07906545 0.020964535 0.05921618 0.07931157 -0.08818367
0.09902815 0.04577478 -0.020530371 -0.0043505575 -0.069716506 -0.05305407 0.09496336 -0.1230463
-0.08825898 -0.04510825 -0.070350386 2.1749882e-05 0.10249008 0.02661308 -0.00843185 -0.051621985
0.045683786 0.0079045 -0.084291555 -0.023095498 -0.016781766 0.10819567 -0.0065554744 0.11865355
-0.04469327 0.038390644 0.023652654 -0.00039478496 -0.03511668 -0.03380669 0.10881334 -0.100884
0.12946978 0.04215218 -0.05973626 -0.08830387 -0.062494945 -0.015206412 0.0042333324 0.0034084609
0.003650745 -0.12338802 -0.1155516 -0.0381713 -0.08174105 0.063938916 -0.088190846 0.10715696
0.09492468 -0.09083446 -0.039981466 -0.04764531 0.13697548 0.027964763 -0.09282568 0.0024589894
-0.1518702 -0.012184362 -0.040248744 0.012925057 0.04701375 -0.11318214 0.023655742 0.12886012
-0.1008755 -0.09537881 -0.087303944 0.13016133 0.055665404 0.09681003 0.076327905 0.096737064
-0.017149441 0.12991399 -0.11510247 -0.12056935 -0.013353021 -0.041123405 0.019792488 -0.020893576
-0.031173108 0.029432558 -0.030076565 0.10994674 0.11137727 0.1069709 -0.026178807 -0.08381213
-0.06768098 0.004634798 -0.017790277 0.0891681 0.08589868 0.056110546 -0.10074542 0.11765035
0.0026888 -0.0059606074 -0.076104105 0.015830677 0.028651848 -0.055297162 0.08486589 0.10165475
0.037969075 -0.050145693 -0.08843498 0.03143901 0.08768006 -0.100947455 0.11552153 0.025305655
-0.025049226 -0.12358465 0.015780345 -0.08560062 -0.036702693 -0.10459447 -0.076043606 0.066283144
0.050194703 -0.03660537 0.11697256 -0.08753258 -0.047204487 -0.13701968 0.06740322 -0.05176082
-0.08572728 0.013673046 0.027053608 0.09166417 -0.010832361 0.08169504 -0.08687961 0.012879989
-0.08665188 0.1366892 0.086516835 0.06644546 0.035944562 0.072369635 -0.097656846 -0.10993415
0.048396673 -0.05117057 0.03597792 -0.013906413 -0.024985988 0.008401416 -0.11006469 0.013343343
-0.10447885 0.032533806 0.13557234 -0.10514579 -0.12224337 -0.02961398 0.028124865 -0.100306116
0.032636996 0.023833768 0.12821844 -0.04915216 0.061541766 0.12113016 -0.079542026 -0.08279398
00000000: 201a 103e 18ab 92bd c0bd 193d f46e b93d
00000010: b171 76bd a15a 05bd 7d23 b13d d829 b63d
00000020: 06de d83d 72aa 4a3d 74e6 0dbc de12 ad3c
00000030: ae4f a83b 3467 acbc e64f e03c 21d8 e03d
00000040: 4660 3a3c 7bed 8b3c 1107 adbd 51f0 66bd
00000050: 916c cc3d 1534 fcbc 453c 8a3d 8842 9bbc
00000060: 5253 17bc ad84 0aba e509 d1bd 40df 8a3d
00000070: d8e8 873d 834b 84bc c895 acbd 12c1 cc3c
00000080: f30d 68bd 7d73 cb3d e5ec d0bc f066 dabd
00000090: a784 66bd 4a68 80bd bcc6 363d c88a b7bd
000000a0: 45c1 a5bd ddf8 10be eab3 813d 7b21 3d3d
000000b0: ec54 21bd 57b1 6abc eaea 053e 592e 503d
000000c0: d22d bfbd 1567 e33c c8b0 1e3d 5615 ef3d
000000d0: 4b4d 6fbd 44ee e83c 9d78 9bbd 0a15 08be
000000e0: 912c 103e cac7 b1bd 4461 30bd 0cec ea3c
000000f0: bac7 a8bd 0e73 a8bd 27d9 e8bb 50d7 f0bd
00000100: 3a6d be3d db44 a03d c3fd 26bc d6f1 933c
00000110: e307 5dbd 6eea f53d d142 113d d22a 26bd
00000120: 117a 89bd ba33 bb3d 437d b5bd e3c3 c13c
00000130: 1d39 91bd 7c27 c6bb ce54 633d 5ded 04bd
00000140: 5f03 04be 8067 4537 df73 b2bc 11ed a13d
00000150: d1bd ab3c aa8c 723d 1b6e a23d a499 b4bd
00000160: 45cf ca3d 567e 3b3d 4f2f a8bc 1f8f 8ebb
00000170: 87c7 8ebd 394f 59bd 267c c23d b3ff fbbd
00000180: 20c1 b4bd 6ec3 38bd dd13 90bd 8473 b637
00000190: 52e6 d13d ad03 da3c be25 0abc 9371 53bd
000001a0: ec1e 3b3d e081 013c 0da1 acbd c532 bdbc
000001b0: ea79 89bc b195 dd3d 4ecf d6bb a200 f33d
000001c0: 4a10 37bd 823f 1d3d 36c3 c13c 24fb ceb9
000001d0: 82d6 0fbd e278 0abd 87d9 de3d 459c cebd
000001e0: ba93 043e c4a7 2c3d 02ae 74bd a9d8 b4bd
000001f0: b3fa 7fbd 5124 79bc c4b7 8a3b 7c60 5f3b
00000200: 5641 6f3b dcb2 fcbd 51a6 ecbd 8259 1cbd
00000210: da67 a7bd 68f2 823d 679d b4bd 1c75 db3d
00000220: df67 c23d 6b07 babd 9bc3 23bd bb27 43bd
00000230: 4d43 0c3e 5c16 e53c 641b bebd ff26 213b
00000240: dd83 1bbe eba0 47bc dedb 24bd 9ec3 533c
00000250: 7d91 403d 0acc e7bd b0c9 c13c e8f3 033e
00000260: d097 cebd f755 c3bd 69cc b2bd 0349 053e
00000270: 6801 643d 5644 c63d ce51 9c3d 151e c63d
00000280: fc7c 8cbc 2c08 053e d8ba ebbd 10ed f6bd
00000290: a1c6 5abc 0471 28bd db23 a23c 0129 abbc
000002a0: bf5e ffbc 8c1c f13c 2163 f6bc c22b e13d
000002b0: c419 e43d 8f13 db3d f074 d6bc b2a5 abbd
000002c0: 539c 8abd 81df 973b eabc 91bc c49d b63d
000002d0: a6eb af3d 2cd4 653d 9d53 cebd abf2 f03d
000002e0: 9436 303b 3351 c3bb 78dc 9bbd 56af 813c
000002f0: 48b7 ea3c 477f 62bd 2bce ad3d 5e30 d03d
00000300: 7685 1b3d 9265 4dbd 661d b5bd 31c6 003d
00000310: 9a91 b33d 8abd cebd 8d96 ec3d ce4d cf3c
00000320: 0934 cdbc f319 fdbd c845 813c 614f afbd
00000330: 9055 16bd a035 d6bd c0bc 9bbd 75bf 873d
00000340: f698 4d3d 83ef 15bd 4f8f ef3d 4844 b3bd
00000350: 7e59 41bd e34e 0cbe b30a 8a3d 2703 54bd
00000360: c991 afbd e904 603c 879f dd3c 6dba bb3d
00000370: 377a 31bc bb4f a73d f0ed b1bd 9706 533c
00000380: 8a76 b1bd 41f8 0b3e bd2f b13d 8f14 883d
00000390: 9b3a 133d 8836 943d 5000 c8bd 2825 e1bd
000003a0: 973b 463d 3b98 51bd 955d 133d b9d7 63bc
000003b0: 6aaf ccbc 18a6 093c 9969 e1bd 099e 5a3c
000003c0: 02f9 d5bd 2b42 053d 7ad3 0a3e ad56 d7bd
000003d0: bb5a fabd 0499 f2bc 1e66 e63c 4b6d cdbd
000003e0: 5fae 053d 093f c33c b24b 033e c653 49bd
000003f0: 3813 7c3d 1713 f83d eee6 a2bd e48f a9bd

rnn.bias_ih_l0 f4 [256]
0.11718633 0.12154708 -0.08729527 0.004023347 0.1390195 -0.121976905 0.045095976 0.09723224
0.0038035726 0.07246611 0.054292392 -0.09642344 -0.10846239 0.13408203 0.001757267 -0.026957396
0.061271794 0.12980929 0.12915437 0.074022315 -0.03494984 -0.14200334 0.1150968 0.035255782
0.13164176 0.045655053 0.014856705 -0.035147317 -0.110732205 -0.058960952 0.055401802 -0.015584553
0.052532014 -0.021087656 0.058896467 -0.11937714 -0.031614505 0.081113175 0.025979701 0.13057815
-0.12542696 0.049092036 0.06498674 0.04055811 0.13731845 0.0046109552 0.0068366365 -0.02290969
-0.035830513 0.11342734 0.041711714 -0.055518523 0.05157267 -0.042600233 -0.13194866 -0.06636347
-0.11465194 -0.061316207 0.09930329 0.103713006 -0.099314116 -0.019728173 -0.014749325 0.12305857
-0.07356842 -0.0491847 -0.023854358 0.079270646 0.14460206 0.071414135 0.02598671 0.08100375
0.026040284 0.05389909 -0.10273483 0.03377753 0.121074766 0.06323559 0.14499828 -0.043187637
0.03892603 -0.036961645 0.014905086 -0.10071302 -0.04151858 0.105088115 -0.07691717 -0.06927805
6.747624e-05 0.07510114 0.008766404 0.048827644 -0.07292558 -0.024591787 -0.078369014 -0.008421673
-0.114497796 -0.07197994 0.035103947 -0.040338516 -0.028646912 -0.039562084 -0.001461059 -0.055124197
0.06583459 -0.06741125 0.10626315 -0.055436574 -0.0042741657 -0.086568 -0.0891965 0.11900997
0.029998973 -0.102586225 0.092178315 0.040736277 0.10168559 -0.0022254556 -0.12831639 -0.05812483
0.06852446 0.08383983 0.080263875 -0.05216524 -0.0846775 0.049045578 -0.022161061 0.13698798
0.10010428 -0.102364525 -0.011462993 -0.06024537 0.06295401 0.057083443 -0.05152657 -0.057292536
-0.037990797 0.13735706 0.026881676 -0.021250436 -0.03499172 0.06922685 0.14992757 0.020163592
-0.089634836 -0.08246148 0.14879715 0.09050685 0.059455477 -0.07535429 -0.013016199 -0.027350346
0.1329317 -0.005863667 0.013240767 0.14977355 -0.09161793 -0.0038837055 -0.052964114 -0.0013279653
0.022256734 0.12673388 -0.028441561 -0.074217275 -0.020336693 0.08509376 -0.09344864 0.03615489
0.042303137 0.0076505537 0.0060145003 0.13902698 -0.08347685 0.08961374 0.1060138 0.09972826
0.0038004625 0.007570261 0.025981229 -0.112911075 0.105129264 -0.09632193 0.07144641 0.10401855
0.017480332 0.025979016 0.06191337 0.06528806 0.029545538 0.068609044 0.09730539 -0.04963554
0.09487669 -0.038261946 -0.07577447 0.12610623 -0.021606738 0.017379852 0.020282403 0.008957325
0.10493744 -0.1307318 0.028986339 0.13831767 -0.04725644 -0.042087503 0.12920704 0.039117076
0.024095897 0.13820812 0.041879397 0.014639461 -0.054016236 0.06428464 -0.0703744 0.009020945
0.06444746 0.12941192 0.050256666 0.06062372 -0.06397612 -0.016656779 0.050251633 -0.09454163
0.056500927 -0.07834622 -0.11055522 0.07746072 0.08762664 -0.016198797 -0.06909875 -0.076003455
-0.1167009 0.111742824 -0.016103644 0.03111919 -0.08331361 -0.025929295 0.06464277 -0.07106515
0.07578233 0.11292365 0.071131796 -0.07155206 -0.032748412 0.12634401 -0.10623873 0.0025782364
-0.06609073 0.091594405 -0.12940305 -0.088189185 -0.053969998 -0.09870241 -0.005354179 -0.09139942
00000000: 63ff ef3d aded f83d ddc7 b2bd 48d6 833b
00000010: 215b 0e3e 07cf f9bd 8fb6 383d b221 c73d
00000020: 5c45 793b 1d69 943d b361 5e3d a779 c5bd
00000030: 8821 debd cd4c 093e 1954 e63a c2d5 dcbc
00000040: 22f8 7a3d baec 043e 0b41 043e 0399 973d
00000050: 9027 0fbd 5369 11be dfb7 eb3d 5e68 103d
00000060: 19cd 063e cb00 3b3d 8a69 733c a2f6 0fbd
00000070: 91c7 e2bd 0a81 71bd 00ed 623d 5a56 7fbc
00000080: cf2b 573d 05c0 acbc 6c3d 713d 017c f4bd
00000090: 367e 01bd aa1e a63d 62d3 d43c 47b6 053e
000000a0: ed6f 00be bb14 493d c517 853d 4320 263d
000000b0: 359d 0c3e 7f17 973b dd05 e03b 1aad bbbc
000000c0: 04c3 12bd 984c e83d e7d9 2a3d 6467 63bd
000000d0: dd3d 533d 957d 2ebd 8d1d 07be 92e9 87bd
000000e0: a3ce eabd b426 7bbd 865f cb3d 7c67 d43d
000000f0: 3365 cbbd fa9c a1bc 27a7 71bc 2206 fc3d
00000100: 0aab 96bd e575 49bd 376a c3bc a658 a23d
00000110: 9012 143e 9341 923d 15e2 d43c 4be5 a53d
00000120: 6f52 d53c 4bc5 5c3d a366 d2bd 4f5a 0a3d
00000130: 0cf6 f73d a981 813d 6e7a 143e 85e5 30bd
00000140: e770 1f3d 1865 17bd 7634 743c a142 cebd
00000150: 630f 2abd 7038 d73d c086 9dbd a6e1 8dbd
00000160: 0882 8d38 a0ce 993d f7a0 0f3c 7fff 473d
00000170: 025a 95bd b774 c9bc ef7f a0bd 0ffb 09bc
00000180: d27d eabd 386a 93bd 28c9 0f3d 003a 25bd
00000190: eeac eabc da0b 22bd 0181 bfba e9c9 61bd
000001a0: 49d4 863d e90e 8abd 7fa0 d93d 7611 63bd
000001b0: 4d0e 8cbb 904a b1bd a8ac b6bd 80bb f33d
000001c0: 68c0 f53c ba18 d2bd fcc7 bc3d 15db 263d
000001d0: 8940 d03d f3d8 11bb 5f65 03be 4d14 6ebd
000001e0: 8d56 8c3d 37b4 ab3d 6361 a43d 38ab 55bd
000001f0: 666b adbd 04e4 483d 1d8b b5bc 9446 0c3e
00000200: 7903 cd3d 7ea4 d1bd 47cf 3bbc d9c3 76bd
00000210: 08ee 803d 54d0 693d 860d 53bd 94ab 6abd
00000220: 3d9c 1bbd 54a7 0c3e f636 dc3c 6515 aebc
00000230: 7a53 0fbd cfc6 8d3d 9d86 193e 1e2e a53c
00000240: 7892 b7bd 90e1 a8bd 485e 183e a85b b93d
00000250: 9687 733d 5a53 9abd e541 55bc d50d e0bc
00000260: 3f1f 083e 0124 c0bb cdef 583c 3d5e 193e
00000270: 2ea2 bbbd c485 7ebb e6f0 58bd 1f0f aeba
00000280: c153 b63c 87c6 013e 47fe e8bc 3aff 97bd
00000290: 2399 a6bc a345 ae3d 0062 bfbd 2617 143d
000002a0: 0e46 2d3d 7fb1 fa3b 4915 c53b 175d 0e3e
000002b0: e9f5 aabd 6987 b73d c31d d93d 543e cc3d
000002c0: 2e11 793b f40f f83b 96d6 d43c ec3d e7bd
000002d0: 034e d73d 6f44 c5bd 7f52 923d ad07 d53d
000002e0: ea32 8f3c f2d1 d43c e098 7d3d bfb5 853d
000002f0: 7c09 f23c e682 8c3d 0c48 c73d a34e 4bbd
00000300: b64e c23d 8fb8 1cbd a52f 9bbd fe21 013e
00000310: 9d00 b1bc 3160 8e3c 4827 a63c bec1 123c
00000320: 71e9 d63d 8fde 05be c274 ed3c 26a3 0d3e
00000330: f88f 41bd f263 2cbd da4e 043e 3a39 203d
00000340: c264 c53c 6e86 0d3e bb89 2b3d 5ada 6f3c
00000350: 2140 5dbd aaa7 833d 7420 90bd 96cc 133c
00000360: 08fd 833d 8f84 043e efd9 4d3d 9450 783d
00000370: e905 83bd cc73 88bc a8d4 4d3d 0b9f c1bd
00000380: 846d 673d fc73 a0bd c66a e2bd baa3 9e3d
00000390: 9975 b33d 57b3 84bc a583 8dbd b3a7 9bbd
000003a0: e200 efbd 6cd9 e43d caeb 83bc aced fe3c
000003b0: 53a0 aabd ac69 d4bc 6e63 843d 9b8a 91bd
000003c0: c433 9b3d 8444 e73d 8cad 913d e389 92bd
000003d0: 3323 06bd 5360 013e b193 d9bd a1f7 283b
000003e0: 945a 87bd d995 bb3d 3c82 04be 889c b4bd
000003f0: a50f 5dbd 7d24 cabd 1c72 afbb 9e2f bbbd

rnn.bias_hh_l0 f4 [256]
-0.05739004 0.040942058 0.13250245 0.038475763 -0.08277295 -0.13400316 0.07126407 0.050823886
-0.025743205 0.029486768 0.119853996 0.102799274 0.035369378 0.11642442 0.05208381 0.045739233
-0.03302038 0.031031838 -0.018723736 0.0035195807 -0.032899823 -0.14413863 -0.07622934 0.035137843
-0.032770663 0.079120666 0.07417463 -0.08216342 0.030521626 -0.12089114 -0.08334693 0.032067582
0.08976443 -0.06174806 0.046782248 0.022191906 0.088676445 -0.027131712 0.089564875 -0.02616789
-0.08487984 -0.002858802 0.04460987 0.049403794 -0.08206649 0.02460547 0.04811484 -0.07736882
-0.053811375 -0.094615355 0.00019837794 0.06997134 -0.078087874 0.11082645 -0.06916339 0.044311408
-0.107937485 -0.08634486 -0.10225579 0.105495684 0.057189308 -0.082333535 -0.1219847 -0.033259835
-0.030059101 -0.027802216 0.038909853 0.049521998 0.12832119 0.066822544 -0.014859356 -0.112489335
0.076140694 0.05632867 0.030604016 -0.030231213 0.106708854 0.114838466 0.06883907 0.05939985
0.034242854 -0.08070517 0.13756658 0.12623417 0.06984599 0.100679025 -0.0701217 -0.11551806
-0.04350438 -0.03215188 -0.096492104 -0.06271709 -0.13350308 0.03994542 -0.118681915 0.04216749
-0.03933126 0.04605753 -0.04267774 0.082262136 0.115310736 0.04350427 -0.006129265 0.03190657
-0.0010441681 0.095589355 -0.019246388 0.14081529 -0.037821446 0.052463006 0.08340551 -0.0154135795
-0.120300375 0.10281071 -0.0101912655 -0.013073723 0.09387272 -0.051596697 -0.011205511 -0.03386406
0.043591637 0.105638005 -0.10733867 -0.12145244 0.09340942 0.007828455 -0.052215096 0.080949046
0.123456486 -0.09211564 -0.01775392 -0.032581653 0.14762264 0.00092467136 0.073760316 -0.06775847
-0.13047127 -0.056794304 -0.09818077 -0.11242775 0.12518875 0.039535515 0.1241138 0.10655239
-0.09604404 0.06293504 0.08189627 -0.031288512 -0.014052055 -0.093397066 0.14066328 0.12741917
0.07681035 -0.05782524 -0.044983026 0.1305691 0.09745743 -0.05240628 -0.06010999 -0.022762083
-0.055617165 0.03136183 0.0055788592 -0.04996433 -0.017575672 0.06977182 0.041143775 -0.11087092
-0.10119432 -0.108853064 0.05296063 0.043669436 0.05748635 0.14290124 0.016928274 -0.08405408
-0.0058210534 0.00044496113 0.10458209 0.021287767 -0.08815009 -0.07981794 0.026912812 -0.113179006
0.07838244 0.13019685 0.09607444 -0.09102154 0.11402908 0.041050047 -0.12206905 0.027094888
0.14044026 0.031238956 0.111287974 0.030018268 -0.09479559 0.07666361 0.03523575 0.10487281
0.027686648 0.07840569 -0.0916639 0.12363455 0.0042033894 -0.07331768 0.11558368 -0.04777618
-0.022724489 -0.017681446 -0.041462112 0.04045937 0.12610176 0.03940227 0.064289644 -0.08185218
0.076895624 -0.044417504 0.040215254 0.06014484 -0.14788438 -0.12982869 0.07584236 -0.050104517
-0.028435994 0.10224494 -0.090519845 -0.0041517834 -0.06437924 -0.07233676 -0.02891324 0.031103725
0.0013432726 -0.044143926 -0.02565738 0.10542996 0.12111257 0.1421898 -0.047460362 -0.101608485
0.06255729 -0.11935696 0.06335554 0.092214 -0.08420543 -0.059983768 0.102822445 -0.046736483
-0.13379893 -0.056243412 0.07383819 -0.11569387 -0.046155322 0.056979254 0.05959792 -0.017307756
00000000: d211 6bbd dcb2 273d b9ae 073e c398 1d3d
00000010: dd84 a9bd 2038 09be e6f2 913d b52c 503d
00000020: 6ae3 d2bc 3c8e f13c 0376 f53d 6d88 d23d
00000030: 7bdf 103d ed6f ee3d d555 553d 1059 3b3d
00000040: 6140 07bd 7b36 fe3c 8562 99bc c4a8 663b
00000050: f7c1 06bd 1499 13be 211e 9cbd b3ec 0f3d
00000060: 883a 06bd 040a a23d dee8 973d 4c45 a8bd
00000070: 7d08 fa3c c695 f7bd ccb1 aabd 4c59 033d
00000080: 6ad6 b73d 89eb 7cbd be9e 3f3d cdcb b53c
00000090: ff9b b53d 5343 debc ca6d b73d 0b5e d6bc
000000a0: 7bd5 adbd bd5a 3bbb d7b8 363d a25b 4a3d
000000b0: 7a12 a8bd 6991 c93c 1114 453d 8b73 9ebd
000000c0: 5169 5cbd b2c5 c1bd ac03 5039 224d 8f3d
000000d0: 89ec 9fbd faf8 e23d 89a5 8dbd e17f 353d
000000e0: 540e ddbd 93d5 b0bd 7c6b d1bd 1f0e d83d
000000f0: 563f 6a3d 7c9e a8bd 1dd3 f9bd 773b 08bd
00000100: 813e f6bc 79c1 e3bc f05f 1f3d 94d7 4a3d
00000110: a166 033e 42da 883d a874 73bc cf60 e6bd
00000120: a7ef 9b3d e4b8 663d 46b5 fa3c 73a7 f7bc
00000130: 2c8a da3d 6e30 eb3d 80fb 8c3d 424d 733d
00000140: 3c42 0c3d c148 a5bd 41de 0c3e 8843 013e
00000150: 6a0b 8f3d ce30 ce3d f79b 8fbd bc94 ecbd
00000160: a631 32bd b1b1 03bd a79d c5bd d171 80bd
00000170: 08b5 08be cf9d 233d 810f f3bd d1b7 2c3d
00000180: d119 21bd d2a6 3c3d dbce 2ebd 0d79 a83d
00000190: 0928 ec3d 8931 323d 00d8 c8bb 77b0 023d
000001a0: 78dc 88ba 5ac4 c33d 9aaa 9dbc e231 103e
000001b0: a9ea 1abd 73e3 563d 82d0 aa3d 3d89 7cbc
000001c0: 0b60 f6bd 6c8e d23d 44f9 26bc 2b33 56bc
000001d0: 5740 c03d 0f57 53bd 5297 37bc 0ab5 0abd
000001e0: 258d 323d bd58 d83d 60d4 dbbd 0fbc f8bd
000001f0: 704d bf3d ec42 003c 7fdf 55bd 9dc8 a53d
00000200: c1d6 fc3d 20a7 bcbd ab70 91bc 5774 05bd
00000210: 642a 173e a565 723a a60f 973d f4c4 8abd
00000220: 439a 05be 25a1 68bd 0013 c9bd 8540 e6bd
00000230: 7b31 003e feef 213d 602f fe3d 2438 da3d
00000240: bdb2 c4bd 16e4 803d 3bb9 a73d 6228 00bd
00000250: 973a 66bc f646 bfbd 090a 103e 2c7a 023e
00000260: bf4e 9d3d 29da 6cbd 1f40 38bd e8b3 053e
00000270: c397 c73d f8a7 56bd e535 76bd 8c77 babc
00000280: d3ce 63bd 4375 003d ddce b63b 66a7 4cbd
00000290: dbfa 8fbc 87e4 8e3d 6086 283d 4b10 e3bd
000002a0: f83e cfbd 5bee debd 3fed 583d b9de 323d
000002b0: cf76 6b3d b454 123e 2aad 8a3c 8c24 acbd
000002c0: 89be bebb ac49 e939 232f d63d af63 ae3c
000002d0: 0988 b4bd 9777 a3bd 4278 dc3c 65ca e7bd
000002e0: f986 a03d 5352 053e adc2 c43d 8069 babd
000002f0: 1488 e93d 1824 283d 57ff f9bd 19f6 dd3c
00000300: 92cf 0f3e d7e8 ff3c f3ea e33d dfe8 f53c
00000310: 3124 c2bd d001 9d3d 5d53 103d 8ec7 d63d
00000320: 1ccf e23c 2a93 a03d 48ba bbbd 1c34 fd3d
00000330: 96bc 893b 9427 96bd 23b7 ec3d f5b0 43bd
00000340: b528 babc aed8 90bc 2dd4 29bd b9b8 253d
00000350: d220 013e 4664 213d 4aaa 833d 1ea2 a7bd
00000360: 747b 9d3d 21ef 35bd c0b8 243d 705a 763d
00000370: 016f 17be d0f1 04be 3d53 9b3d 653a 4dbd
00000380: 9af2 e8bc cc65 d13d 7862 b9bd af0b 88bb
00000390: 43d9 83bd 4c25 94bd 76db ecbc 3dcd fe3c
000003a0: c010 b03a 43d0 34bd 6d2f d2bc aaeb d73d
000003b0: de09 f83d 349a 113e cc65 42bd 1c18 d0bd
000003c0: 091e 803d 6c71 f4bd 8dc0 813d b2da bc3d
000003d0: e573 acbd 8ab1 75bd 9394 d23d c16e 3fbd
000003e0: 9602 09be 7e5f 66bd 7a38 973d e8f0 ecbd
000003f0: 5d0d 3dbd 1463 693d f31c 743d ffc8 8dbc

output.weight f4 [1, 64]
0.10588656 -0.061197333 -0.14039354 -0.040911097 0.09440862 0.012254465 -0.09057774 -0.013564747
-0.13502079 0.08853424 -0.102112316 -0.11524875 0.07950706 0.0466581 0.031124568 0.09244739
0.044635955 -0.08194231 0.08657523 0.11749798 0.06265843 0.049552288 0.058024812 0.108782806
0.026681209 -0.13731769 0.08157507 0.0015506914 -0.032292455 0.044495415 0.09329518 0.003369122
-0.07836973 0.13400108 0.0134240175 0.09751118 -0.033996314 -0.04942257 0.07170442 -0.06287948
0.038609955 -0.08626997 -0.060267143 0.118006326 0.08995007 0.12828235 0.117713556 0.1369474
0.09653352 -0.11074933 0.08963504 -0.085445985 0.06679711 -0.06336512 -0.08145728 -0.028751979
-0.04862741 0.08084448 -0.03651222 0.087026514 0.124072775 -0.06320112 -0.09495685 -0.13031244
00000000: 0edb d83d 0eaa 7abd 53c3 0fbe 6592 27bd
00000010: 4e59 c13d f4c6 483c d280 b9bd ac3e 5ebc
00000020: e442 0abe 7151 b53d 4320 d1bd 8907 ecbd
00000030: 99d4 a23d 901c 3f3d f3f8 fe3c 0f55 bd3d
00000040: 31d4 363d 5fd1 a7bd 5b4e b13d c8a2 f03d
00000050: 1053 803d 57f7 4a3d 6dab 6d3d 85c9 de3d
00000060: 8d92 da3c 029d 0cbe d510 a73d 9240 cb3a
00000070: 1845 04bd d340 363d 8b11 bf3d 7dcc 5c3b
00000080: 4f80 a0bd 9437 093e 69f0 5b3c f1b3 c73d
00000090: b83f 0bbd 526f 4abd c4d9 923d f5c6 80bd
000000a0: 7925 1e3d 4fae b0bd aeda 76bd 4dad f13d
000000b0: be37 b83d 735c 033e ce13 f13d f03b 0c3e
000000c0: 5eb3 c53d 8bd0 e2bd 9392 b73d 4efe aebd
000000d0: eccc 883d 92c5 81bd 13d3 a6bd 4589 ebbc
000000e0: 892d 47bd ca91 a53d d68d 15bd f53a b23d
000000f0: de19 fe3d 976f 81bd bd78 c2bd a070 05be
